model/bi_lstm/best_model_fold3.pt (torch, 988002 bytes, 13 tensors)

token_emb.weight f4 [75, 64]
00000000: 4d09 233c 25a5 babc f2d5 d53b 99aa 173c
00000010: 7374 18bd e254 123c ae63 613c 1d1a 693b
00000020: 4694 de3b 571f e4bb b1e5 8ebc d164 603c
00000030: 6bc3 b6bc 18d9 ac3c ecb4 c6bc 32e4 0a3c
00000040: e429 273c c1ea 44bc 5677 91b9 d223 f9bb
00000050: 2fe6 d5bc fd4b 273c c63a dfbb 684b 883c
00000060: 14d1 9d3c 4024 6cbc 543d 713c b0da 2bbc
00000070: 01b3 263a 7e26 4fba 1b11 0a3b 6274 40b9
00000080: c8e5 8f3b 9919 6bbc 7854 873c 2e9d 99bc
00000090: 7ade ac3b d394 47bb 2d3f 9bbc a958 debb
000000a0: 43fc 593c dcf5 a7bb d29b c93b 0341 22bc
000000b0: 341b f3bb cbd8 773b f5b3 e6bb 0de0 2dbc
000000c0: 75b1 8f3b 32e3 2f3c 71ee e43c df7e 133c
000000d0: 38ea 7f3c 6cf1 2f3c 13cc 42bb bfa4 febb
000000e0: 9605 ec3b dc89 23bc e1aa 533c 26cc 1a3c
000000f0: 0d30 b63b 07e6 203c f9d2 573c f296 fbbc
00000100: 720f 473e 33c4 893e 3bd2 653e a6b6 aa3e
00000110: 35b8 a6be 5ed3 333d 461b 28be eb4a fd3e
00000120: bce4 ad3e f970 b23c 1f5c 6b3d cab2 0a3f
00000130: bade 9e3e ebbd 44be fbb2 22be 1ae9 f93e
00000140: 8576 1d3e 7018 bd3e ab0b 85be 1a76 0c3f
00000150: e6c1 303e 2339 2e3e 5f2f e53e edc8 ea3e
00000160: 261e b8be 2f32 68be e91f 9f3e 0692 8abe
00000170: 79f7 ccbe 000b 32be 0be9 063d d561 d63b
00000180: fdb8 cdbe 03d6 cd3e 57c0 f9bd c938 a6bd
00000190: a8b4 0e3d c232 5abe c158 843e 0658 ccbd
000001a0: b0d6 5ebe ff9d 2c3d a5c7 f5be 26c8 c03e
000001b0: a7a1 d0be 0935 d5bd 062e 1abd 0294 dbbe
000001c0: 693e 723e 7aa0 ec3d 2443 34be 8f90 8ebd
000001d0: 7a5d 353e 86b6 94be 96c5 efbc 889d 253e
000001e0: a91b 26be 83d0 943c 86e3 af3d 4cf2 513e
000001f0: 6cde 8fbe 8fb7 3b3e d45b 6cbe 296d ad3d
00000200: e7d7 2b3b add4 ad3b ce0f b03c 5aeb 8cbc
00000210: 1bff 6e3b 47eb 843c 2acf 0bbc 4b0a 313c
00000220: a0d5 133c aec9 553b bc5d 2eba 503b 90bc
00000230: 8805 b53c ae4f c7bb 532f 6239 37e4 cf37
00000240: 7da2 e43a c1a5 423c 35d7 963b 49cc e33b
00000250: 0d09 dcbb 60ba c1bc 636e 18bc c7b6 1fbc
00000260: f642 8cbc bbec 9dbb 1192 90bb 57ce 4cbb
00000270: 1bbf a63a c204 7cbc 4dfd 2d3c 41bd 7ebb
00000280: e1bb 873c 9ef7 893b 7e00 6cbc 5a23 413b
00000290: 7e18 c73a 2fa8 15bc 74bd 6e3c 4691 6cbc
000002a0: 78fa 7f3c 30e3 7f3a bdf7 1abc 3a46 673c
000002b0: d3b7 743b 9a1e b23b 3f0b 983b 4803 9e3b
000002c0: 2f57 a6bc 4ada 923a 21e5 4dbc b059 a63b
000002d0: e69d 22bc 6f76 563c 5442 3c3d 895a 773c
000002e0: de6b 953b e574 f33b dcc5 8bbc b8e3 503c
000002f0: ad16 943b ba39 033c dc40 f8bc 3764 1a3c
00000300: 7092 cabc 3af0 0f3c e500 2bbc ceca 493c
00000310: c7ea 6ebc fc5d c1bb 4354 f03b 11ba 5c3c
00000320: 9337 75bc c7da 45ba c9a7 bfba 0d41 09bc
00000330: 0709 50bc 697f d43b 9cf1 223b a906 debb
00000340: 0a0b 5d3c c80d fc3b 6c79 dcbc 9ba6 323c
00000350: 1811 9f3b 4c23 b53b ceaf 83bc c87a 0fbc
00000360: 4c7e 053d 9628 db3c fd67 78ba b3f3 bd3c
00000370: f1c4 14bc 17f0 073b a711 bb39 1722 373d
00000380: b225 563b 28e3 bbbc a4af e4bb 7863 9c3b
00000390: 6e8a 6ebb e84e d93c 7e58 693b d522 5dbc
000003a0: fe12 87bb a4e0 0cba d458 023b 9550 363b
000003b0: 65b0 afbb 892d 05bd 60b4 0bbc 624c 97bc
000003c0: a9ba c8bb 0298 fc3b 7709 703c b765 873c
000003d0: 7f2f f2bb fac2 2c3b aa04 69bb 9d9a b63a
000003e0: d21a d3bc f90d 183d 3788 00bc 064a a73a
000003f0: 3e7f ab3c 91c5 c13c 94ac 33bb 5274 1f3c
0.009950948 -0.022783825 0.0065257484 0.009256982 -0.03722043 0.00893137 0.013756676 0.0035568543
0.006792578 -0.006961744 -0.01744351 0.0136959115 -0.02230998 0.021099612 -0.024256192 0.008477258
0.010202859 -0.01201886 -0.00027745467 -0.007603147 -0.026110737 0.010210988 -0.0068124263 0.016637519
0.019264735 -0.01441294 0.014724094 -0.010489151 0.0006359071 -0.0007902159 0.0021067325 -0.00018353903
0.0043914057 -0.014349365 0.01651977 -0.018751707 0.0052755447 -0.0030453696 -0.018951023 -0.0067854715
0.013304773 -0.0051257443 0.0061526084 -0.009903195 -0.0074190143 0.0037818428 -0.0070404955 -0.0106125
0.004385168 0.01073532 0.027945729 0.009002416 0.015619807 0.010738712 -0.0029723688 -0.007771104
0.0072028143 -0.009981599 0.012919159 0.009448087 0.0055599273 0.009820468 0.013172858 -0.030711625
0.19439486 0.269075 0.22443478 0.33342475 -0.32562414 0.043902747 -0.16416654 0.4947122
0.33963573 0.021782385 0.0574609 0.5417906 0.31029302 -0.19213073 -0.15888588 0.48810655
0.15377243 0.36932707 -0.25985464 0.5486771 0.17261466 0.17013983 0.44762704 0.4585642
-0.359605 -0.22675394 0.31079033 -0.27064532 -0.40032557 -0.17387009 0.03293709 0.006542424
-0.40180197 0.4020234 -0.12194889 -0.081163 0.034840256 -0.21308425 0.25848964 -0.09977727
-0.21761584 0.042142864 -0.4800388 0.376527 -0.4074833 -0.10410506 -0.037641548 -0.42886358
0.2365662 0.11554046 -0.17603737 -0.06961166 0.1771144 -0.29045504 -0.029269021 0.16173375
-0.16221489 0.018165832 0.085883185 0.20502585 -0.28099382 0.18331741 -0.23081905 0.08468086
0.0026221217 0.005304894 0.021491911 -0.017202068 0.0036467973 0.01622547 -0.0085332785 0.010805677
0.0090231 0.0032621431 -0.0006651541 -0.017606407 0.022097364 -0.0060824966 0.00021570669 2.4782594e-05
0.0017443445 0.011880339 0.0046032914 0.006951843 -0.006714946 -0.02364844 -0.009303662 -0.009748167
-0.017121773 -0.0048194802 -0.0044119437 -0.0031250918 0.0012721749 -0.015381994 0.010619474 -0.0038870128
0.01656908 0.0042104265 -0.014404414 0.0029470534 0.0015189794 -0.009134336 0.014571536 -0.014438933
0.015623681 0.00097613316 -0.0094584795 0.014115864 0.0037341013 0.005435777 0.0046400125 0.0048221685
-0.020305244 0.0011203971 -0.012566836 0.0050766096 -0.009925341 0.01308976 0.045961693 0.015097269
0.004559978 0.0074297064 -0.01706212 0.012749605 0.0045193047 0.008009369 -0.030304365 0.009423307
-0.02472803 0.008785302 -0.010437225 0.012316419 -0.0145823425 -0.0059010964 0.0073342635 0.013472096
-0.014966863 -0.0007547554 -0.0014622147 -0.008377326 -0.012697465 0.006484915 0.0024863249 -0.0067756963
0.013491401 0.0076920725 -0.026913367 0.01090398 0.0048543327 0.0055278894 -0.016075041 -0.008757301
0.03259115 0.026752751 -0.00094759447 0.023187494 -0.009080158 0.002074247 0.0003568057 0.044710245
0.0032676277 -0.022935465 -0.006978946 0.0047726 -0.0036398428 0.026526883 0.0035605724 -0.013497074
-0.004122137 -0.000537405 0.0019889371 0.0027819027 -0.005361604 -0.03251413 -0.0085268915 -0.01846904
-0.0061257672 0.0077085504 0.014650694 0.016527994 -0.007390916 0.0026361332 -0.0035555759 0.0013931576
-0.025769625 0.0371227 -0.007844976 0.001276315 0.020934697 0.023653777 -0.0027416097 0.009732323

lstm.weight_ih_l0 f4 [512, 64]
00000000: 9a2c 19bd b18a 5e3e 6356 cd3e 3045 063f
00000010: a73e 363e 7447 3ebe a0ef debe 7448 f2bc
00000020: d7f5 d6bb 216c 913e bb3e de3d 3ec0 9a3e
00000030: 4116 543e 0823 5abe e8da 28bf 3b4b b03d
00000040: 6754 a8bc 19bf 67bd 4c56 093e 9b98 96bd
00000050: 5a13 ab3e 398e 083d 3283 8abc ec03 133d
00000060: 132e 4bbd bd32 a73c 05ec 5c3e b391 03be
00000070: c2bb 11bd 77df b73d 441a 163f d567 e63d
00000080: e857 8abe ec2c 3cbe e520 18bd 189e 48be
00000090: f209 83be 3a2c ed3d a413 e13c a661 a73d
000000a0: 8a4f bcbe 5421 863e 1dbd 70bc c54c 5b3e
000000b0: 9e14 6cbe 4656 77be 1b4d a4bd 0b3d bbbd
000000c0: eb53 9cbc 7c49 bbbc 7c08 bcbd feb6 983e
000000d0: 43ca c4be 2481 d13c 0dd7 89bd b765 913e
000000e0: 8499 04bc d192 f7bd a5cb 8d3e 37ec d1bd
000000f0: 1591 8cbd 8974 bc3e e211 30be 3cff 42be
00000100: c081 15bf b9c0 13ba b0fa 99be 08b6 adba
00000110: 6b23 59be 957c 273e b0b0 95be b0b6 243c
00000120: dc67 973d 5fe9 a23e 77e4 f53c 0706 553e
00000130: af70 17be 3af8 8c3e d04b 09be 0e11 563e
00000140: aee9 5abe 69e9 b43e 106f 6bbc fdf8 fa3e
00000150: b5df 6b3d db25 d03b 017e 3f3e b232 353c
00000160: a25b 1a3e c02c 5d3e 4379 39be cac3 4dbd
00000170: a2f5 953d ec40 e0be 2de1 0fbf ce04 12be
00000180: b8cb 1c3e 8b99 123f 47a0 cb3e 4006 fd3d
00000190: d437 a13e 4234 39bf bc12 7bbe 0cfb f7be
000001a0: 6309 9e3e b369 c43e 3e4c a5be b69d 4fbe
000001b0: c0a5 3bbe 5bab 46bd c9eb 9ebe 204e 3d3e
000001c0: 439f 66be cde2 5c3e 248c 9f3d 055d 4bbe
000001d0: 4aed 143e a5f6 493e afdd 11be 755a babd
000001e0: a8de 7c3e 76e7 9fbd a4c9 eabd e41e 3dbd
000001f0: 1522 633d d7fd 83be 4342 41bd 3295 c13e
00000200: 0f2c 133d f53d 69be 7260 153e 7891 6dbd
00000210: be1c 01be 10d1 1ebd c2fa 983d d5c6 333e
00000220: 03c6 6f3e 96d1 943e eb01 f03d 8785 473e
00000230: 11bd 14be 0885 633e 8b00 73be a2d8 89bd
00000240: 85e4 183c 832f bb3b 32ec 933e 83f0 ab3c
00000250: e9cc 01be 4f53 b93d c5d2 203d dc30 913e
00000260: b83c 03be 37e0 1ebd a043 a23d 2a04 07be
00000270: f0f5 aebe db80 4abd 3374 bebd 6eb4 aabd
00000280: 2905 7ebe c056 293d 7998 59be 63b8 ca3e
00000290: eaaf 283d 9a1a 09bb 070f b3bc 38e0 ecbd
000002a0: 85cd 0a3e 43ba c53c 9089 f6bc 30c1 53be
000002b0: 5a4f 97bd c427 853e d79e 1a3e 3ce2 5f3c
000002c0: df05 dabd 7b3f e03c c8c5 c53d ca45 3bbe
000002d0: dc56 44bc ae1a 933d 3668 acbe 06f6 423d
000002e0: f68b 223e d8cc b5bd ae99 673d 3e70 bbbd
000002f0: 4108 b7bd f7c7 d23c c2f4 0abb 17ba 33be
00000300: 6b33 a03d 0744 ce3d f547 febc a0a4 68bb
00000310: 428a 0fbe aaec 093e 0e04 903e 141a b73e
00000320: 0545 b63c 096b 8ebd 9e4e 9ebe 4b7c 823d
00000330: 2853 313e 5436 143e 3465 e33d 8343 2fbe
00000340: 0b63 433d e831 b5bd f5d0 77bd 4553 d23c
00000350: f501 4fbe 98ad 463e 7865 a23e 2ea3 08be
00000360: 1e70 3e3e 09fa 643d 26d2 75be cb10 1b3c
00000370: c720 9a3d 732c 063e 1a81 00bf baeb 8a3d
00000380: d2a5 153c 8ea3 c7be bb1d 873e d32d f4bd
00000390: c882 cd3e 4d3c 0bbe f69e 0bbe 68d0 43bc
000003a0: 9585 87bc be81 f2bc aac8 78bb 8118 ebbd
000003b0: e2f3 2d3e b0d5 8fbe f071 083b c3c7 d73d
000003c0: 8db8 083e c821 0fbd d738 8fbd 45ba ab3b
000003d0: 9eaa a43e 8e98 913e 4d20 74be a7ee 463d
000003e0: 2762 a23e 16fa 423e 932d 2fbe 6684 a1be
000003f0: b623 cabe 9f1e ebbd 3abb fdbd 01be aa3e
-0.03739605 0.21732594 0.4010497 0.5244932 0.17797337 -0.18581945 -0.43542194 -0.029575564
-0.006560068 0.28402808 0.10851809 0.30224794 0.20711614 -0.21302426 -0.65959024 0.08608099
-0.020548059 -0.05657873 0.13411826 -0.07353326 0.33413202 0.03333876 -0.016908262 0.035892412
-0.049604487 0.020409936 0.2157441 -0.12848549 -0.03557945 0.089781694 0.5863383 0.11250273
-0.27020192 -0.18376511 -0.037140746 -0.19591558 -0.25593525 0.11580701 0.027475186 0.08172922
-0.36779433 0.26197302 -0.014693526 0.21416004 -0.2305474 -0.24154004 -0.08022519 -0.091425024
-0.019082984 -0.022862189 -0.09181306 0.29827112 -0.38435563 0.025574274 -0.06730471 0.28397915
-0.008093242 -0.1208855 0.2769443 -0.102501325 -0.0686361 0.3680766 -0.17194322 -0.19042677
-0.5840111 -0.0005636323 -0.30074072 -0.0013253102 -0.21204917 0.16356118 -0.29236364 0.010053322
0.073928565 0.31818673 0.030016167 0.2080308 -0.14789079 0.27533132 -0.13407826 0.20904943
-0.21378204 0.35334328 -0.014369741 0.49018088 0.05758639 0.006352169 0.1870041 0.01105945
0.15074018 0.21599102 -0.18112664 -0.050235547 0.07322241 -0.4379953 -0.56202966 -0.14259645
0.15312088 0.5726554 0.3977072 0.12354708 0.31487906 -0.72345364 -0.24518865 -0.4843372
0.30866536 0.38361892 -0.3228473 -0.20275006 -0.18324947 -0.04850326 -0.31039265 0.18486834
-0.22521691 0.21570893 0.077904016 -0.19859703 0.14543644 0.19722994 -0.14244722 -0.090992846
0.24694312 -0.078078195 -0.11464241 -0.046172038 0.055452425 -0.25779602 -0.047182333 0.3780914
0.03593069 -0.22777541 0.14587572 -0.058000058 -0.1260862 -0.038773596 0.07469703 0.17556317
0.23415379 0.2906615 0.11719116 0.1948453 -0.14525248 0.22218716 -0.23730676 -0.067307726
0.009331827 0.005712451 0.2889114 0.020988708 -0.12675823 0.09049093 0.039263505 0.2835759
-0.12816131 -0.038788047 0.07923055 -0.13185182 -0.3417201 -0.049439292 -0.09299507 -0.083351955
-0.24806656 0.041342497 -0.2124957 0.395938 0.04118339 -0.0020920397 -0.021857752 -0.11566204
0.13554962 0.024136668 -0.030094892 -0.20679164 -0.07388182 0.260069 0.15099655 0.013664778
-0.10645651 0.02737402 0.096568644 -0.18288341 -0.0119835995 0.07182823 -0.33673257 0.047597907
0.15873703 -0.088769615 0.056543045 -0.09152268 -0.08937121 0.025730116 -0.0021203016 -0.17551456
0.07822307 0.10071569 -0.031040171 -0.0035498515 -0.14017585 0.13469186 0.28128093 0.35762084
0.022249708 -0.06954009 -0.30919355 0.06371363 0.17316878 0.1447385 0.11103287 -0.17115597
0.047701877 -0.088474095 -0.06050201 0.025674472 -0.2021559 0.19402158 0.3171804 -0.13343498
0.18597457 0.055902515 -0.24005947 0.009464453 0.07525783 0.13102894 -0.50196993 0.067832425
0.009133773 -0.3899197 0.2638987 -0.11922803 0.4013884 -0.13597222 -0.13634858 -0.011951543
-0.016543189 -0.029602882 -0.0037961402 -0.11479283 0.16987565 -0.28092718 0.0020819865 0.105361484
0.1335165 -0.034944326 -0.06993263 0.005240711 0.3216142 0.28436702 -0.23840447 0.04856744
0.3171551 0.19040713 -0.17107229 -0.31546324 -0.3948037 -0.1148045 -0.12389226 0.33348086

lstm.weight_hh_l0 f4 [512, 128]
00000000: 4baf 95be c47b 92be 67df 3ebe 8cd1 26bd
00000010: 397b 44bd 6aac 233e 2f81 1abe 1735 0d3f
00000020: 604d 45bf ec6b 0f3e 93b7 023f b3f0 0bbe
00000030: 0902 a7be 3670 a0be 45a1 82be 075a 0e3f
00000040: 4986 463e 6ba5 0ebe af99 15bf 7e83 9abd
00000050: 0949 2fbd c770 cd3e 602d 6ebd 8a6a 4ebe
00000060: 2eac c8be c09f 8cbe 3072 313d f7f6 0c3f
00000070: bd02 853e f25b 12bf 8598 523e 948d b2be
00000080: cd7b 26bf 1328 973e acae 2a3e b249 a13e
00000090: 14bc 1ebe 054b 36bc bfcf 733e b6b3 4c3e
000000a0: a487 003e e662 70be e1b5 56be fe22 993d
000000b0: f364 67bd 8424 e8bd a0d7 18be e202 073f
000000c0: 7a6b 143e bdcc c8be 7931 383e 87fe 183e
000000d0: 626c 89be a296 bc3e 887d ed3e 40a5 bcbd
000000e0: c88e 0f3f 71c3 013f 8569 1e3e 4210 1fbe
000000f0: 4113 ac3e ea62 d73e 2987 86ba b486 50bc
00000100: 98a6 513e 6006 be3e 5ae4 b03e c5e5 65be
00000110: 1bfa 0cbe 86ee 0cbf 5468 173e 0fc4 8bbe
00000120: ece4 15bf 35d2 08bc d7d8 c83e ff64 853d
00000130: 55eb d4be 5770 253f 9d64 4d3f 8808 84be
00000140: 9d43 04be a10b 17be 2faa 0dbf 1bc2 f73d
00000150: 4844 14bd 44a7 343e 42f1 e33e 1bbd b8bc
00000160: f164 fcbe 3e95 62bd b368 223e f667 923e
00000170: 756f a03e 7200 063d 135a d43e 9a36 5b3e
00000180: e3b7 183f a52d 8cbd 228c ccbc 0380 34bb
00000190: 1af6 85be 0d07 d3bd 09a0 a9be 918d 6dbe
000001a0: cd59 1bbf f5d5 bdbd 0eed 19be 8893 243f
000001b0: b772 04bf 60b2 fabd 5b70 d5be 6c98 98be
000001c0: f8d6 d8be 55dd 93be bde9 a73c f288 48be
000001d0: aebb 983c 1957 823d 738d 8f3e bc53 b1be
000001e0: b541 923e 4f3b a93e aa09 37bf fff9 94be
000001f0: b13e bc3d eecf a9bd b46c b1be a055 253e
00000200: a087 18bd 90ed 56be cd4f 1a3f 3568 253e
00000210: 30e9 41be 1cc5 78be ea92 023f 37de c23e
00000220: 452f 693d 666d 68bd ba68 0bbe b0eb 93be
00000230: cf58 bebe b4c1 6c3e 5e04 4dbe af58 103e
00000240: d9ed a9be 2325 55be f7b6 a93d cf39 95bd
00000250: d49b ee3e 134c a33e 517d 10bc dc3f ff3d
00000260: dedc 0e3e d05e eb3d 35f2 27bf 8d87 a73e
00000270: 914c 42be d983 0cbf 4900 023d 414b 99be
00000280: 31a7 2dbc 7b2e 5f3e c037 0e3e d05a 96bd
00000290: 31ed e43d f03f ee3d b249 b2bd e51c 76be
000002a0: bc27 3ebd ae31 573c f9af a63e fc7f 49be
000002b0: ee8e 3abe 0965 ef3c 6af2 7bbe 0fb1 8abe
000002c0: 6b79 1a3e 8337 e9be 7117 243d 1009 47bd
000002d0: 08a8 333e 06d9 f8bd f701 e23d 526a 8a3e
000002e0: 143c d43e 864b a13e 7f0c 9c3d 1ba9 8fbd
000002f0: 031d ecbb b84b bb3e 677e 54be 35d5 f63d
00000300: 806f 0bbe 6861 223f 258f fdbd 6d11 d23c
00000310: 7e56 543e e473 263e e041 403e 8179 79be
00000320: 6281 0cbe ffcd 5fbd 8a0e d2be bd12 b1bc
00000330: 12e5 afbe a3a7 8cbe adff 8ebc c7eb b8be
00000340: ed34 d33e 8473 e43e a222 a13e 7e43 9dbe
00000350: 3be3 c73d 400b a8be 5cce 233e bb26 d0bd
00000360: 7236 59be 2c09 ed3e 33e4 5bbb b033 853e
00000370: 22de e23d 2736 48be 6b02 06bd 1d1c 003e
00000380: 598f 593e a17b cf3a 0faa 8bbe 8716 de3e
00000390: 3e7e b1be 6d09 84be eecd 033f 6fbc a0bd
000003a0: f5a1 f7be 5261 0fbf ccbb c33d 1434 b1be
000003b0: b2fe 77be 8910 b33e d643 0d3e af6f d9bd
000003c0: a1ab 833e 8372 593e 05c9 033f 472e 3fbc
000003d0: db18 303c b824 043e cd36 213e 5ec1 553e
000003e0: 63d5 09be 1702 63be 3311 e8be c698 7c3d
000003f0: eaad 6b3e d2d0 04be adb0 683e 32aa 66be
-0.292353 -0.2861005 -0.18639909 -0.040727183 -0.047969077 0.1598374 -0.15088342 0.55159134
-0.7707119 0.14006013 0.5106136 -0.13666038 -0.3261874 -0.3133561 -0.25513664 0.5560612
0.19387163 -0.1393029 -0.5843763 -0.075446114 -0.04279426 0.40125105 -0.05814874 -0.20157829
-0.39193863 -0.2746563 0.04332179 0.5506434 0.25978652 -0.5717155 0.20565994 -0.3487364
-0.65032655 0.29522762 0.16668195 0.31501538 -0.15501434 -0.0111262845 0.23809718 0.1999043
0.12551743 -0.23475227 -0.20967819 0.07477377 -0.056492757 -0.1133509 -0.14926004 0.52738774
0.14494124 -0.39218703 0.17987622 0.14940844 -0.26840502 0.36833674 0.46384835 -0.092112064
0.5607724 0.50688845 0.1546994 -0.15533546 0.3360844 0.42067653 -0.001026367 -0.012727428
0.20473707 0.3711424 0.34549218 -0.22450931 -0.13767283 -0.5505146 0.14785892 -0.27298018
-0.5855243 -0.0083508985 0.39227936 0.06513404 -0.41585794 0.6462454 0.8023165 -0.2578776
-0.12916417 -0.1475053 -0.55337805 0.120975696 -0.03619793 0.17641932 0.44520003 -0.02255111
-0.49295762 -0.05531811 0.15860252 0.2859494 0.31335035 0.03271527 0.4147497 0.21407548
0.5965559 -0.068446435 -0.024969164 -0.0027542121 -0.26164323 -0.10304079 -0.3312991 -0.23198535
-0.606839 -0.09269325 -0.15031835 0.64287615 -0.5173754 -0.122410536 -0.41687283 -0.2980379
-0.42351508 -0.288798 0.020497197 -0.1958349 0.01864418 0.06364269 0.28037605 -0.34634197
0.28565755 0.3305306 -0.7149912 -0.29096982 0.09191645 -0.082916126 -0.34653246 0.16145945
-0.037238717 -0.2098906 0.60278016 0.16153033 -0.1893661 -0.24293941 0.51005423 0.3806016
0.056929845 -0.056744955 -0.13614169 -0.28890753 -0.3717713 0.23120767 -0.20021197 0.1409633
-0.33189276 -0.20814948 0.08286851 -0.07286417 0.46603262 0.31893978 -0.00881894 0.12463352
0.13951442 0.114926934 -0.65603954 0.32720605 -0.1897452 -0.54888684 0.031738553 -0.29940227
-0.010598944 0.21795075 0.13888454 -0.0734154 0.11178053 0.11633289 -0.087054625 -0.2403446
-0.046424612 0.013134403 0.3255613 -0.19677728 -0.18218586 0.029222982 -0.24604192 -0.2708821
0.1508538 -0.45550165 0.040061418 -0.048592627 0.17544568 -0.12150769 0.11035531 0.2703424
0.41452086 0.31502932 0.07619571 -0.07014676 -0.007205607 0.36581206 -0.20751344 0.12052385
-0.13616753 0.6342988 -0.12380818 0.025643075 0.20736119 0.16255146 0.1877513 -0.24362756
-0.1372123 -0.054639813 -0.41026717 -0.02161538 -0.34354454 -0.27471647 -0.0174559 -0.36117384
0.41251317 0.4461938 0.31471735 -0.30715555 0.09760138 -0.32821083 0.15996689 -0.10163637
-0.21212175 0.4629606 -0.0033552765 0.26015997 0.11077525 -0.19551907 -0.03271715 0.12510724
0.21246089 0.0015829691 -0.27278182 0.43376562 -0.34666628 -0.2578844 0.514861 -0.07848441
-0.4836575 -0.56007874 0.09557304 -0.34610045 -0.24218252 0.34973553 0.13795409 -0.10617005
0.2571688 0.21235089 0.51478606 -0.011668748 0.0107481135 0.12904632 0.15743561 0.20874545
-0.13460307 -0.22168766 -0.45325622 0.061669134 0.23015562 -0.12970284 0.22723646 -0.22525862

lstm.bias_ih_l0 f4 [512]
00000000: 27d8 563d 72b2 433d 9a22 cbbd 497f 243e
00000010: f8f0 e63c 4799 7c3e 1460 463e 977e 843e
00000020: 34d5 bfba 3f41 503d 6275 f0be 32a6 823e
00000030: d0e6 26be 3b62 a13e 2a3c f73d 9dd0 4e3d
00000040: 6616 833e 52be c13d 20b9 6e3d a408 c83d
00000050: 66a9 cdbc 7867 a53e ddac df3d c2aa 963e
00000060: e2b7 bd3d bfce ed3d df73 c2bd c620 c13e
00000070: 132b b63e e9d6 a43d 8dfb d43e 79f4 73be
00000080: fceb 883e 0409 6fbe 9236 f63c 0779 913e
00000090: 6666 c83e 2883 ab3e 326a 013e 4c71 8a3d
000000a0: d647 ca3e b97a b33e afaa ff3e 3717 073f
000000b0: 9138 e9bd 484e 863e 2137 8d3e 7b09 40be
000000c0: dee4 c53e 62f1 c93c f500 613e a83b 2e3d
000000d0: 4e83 e63d 54ba 143f 3fd0 783c 4ba3 f0bd
000000e0: 3126 c23d 785f 94ba 1a7d 96be f944 13be
000000f0: b394 333e 0c37 babd 4352 36bd ab3b a13d
00000100: d08b 993e 7cfc c83d bd87 8e3e 2a7f a13e
00000110: 2bca ad3b f3e6 5c3e f9e4 f03e 13c8 a0be
00000120: bb44 14be 28f6 2d3e 38a0 bbbe b0f1 113e
00000130: 36bb 203e ed5b ddbc 5fdc cf3d 1c93 a13e
00000140: 3443 edbb 657a f13e 08da 793e d5cd 8d3d
00000150: a51b 8f3e 7ae9 3e3e d16f cc3e 1eca 143e
00000160: e95a 383e 35be 6e3d fed2 a2bb d0da e6be
00000170: fd15 ef3d 1626 b2be c68c 993d f96d f73d
00000180: 4987 63bd 8ee6 003f c426 193e 50c1 8a3e
00000190: c375 10bc 1d77 733e 43c0 ee3d 1d45 94bd
000001a0: 6429 d13d 4880 683e ad38 e43e 17d9 a93e
000001b0: 5b04 aabc 3f48 823e 0f3f b53e 0730 683e
000001c0: 995d 263e 3f60 9b3e a0e3 a6bc d825 003e
000001d0: 914e 083e 4a6d b53d 8a10 b93e 7399 953d
000001e0: 8dd7 b53d e8fb 45be 4530 f63c 11eb 823e
000001f0: aebb 653e 345f 393e 77c5 b6bb 687d 8e3e
00000200: 7e03 e9bd 352c 6c3e d584 783e 0d88 c33c
00000210: 5470 923e f30b a23d d2e3 113e 0a52 813e
00000220: bfd4 883e 0e79 333e 5431 373f e474 8e3d
00000230: 0fda 123f 43d7 22bd 85e2 853e 8428 183e
00000240: d303 95bd 2f6d fb3e 8a1e aa3e fd68 bf3e
00000250: 1fce f63d 2f4a ea3d 6405 e13c e064 c23e
00000260: a79a 973e b8e3 033e b3f1 ba3e 4dd5 3dbc
00000270: 5ffa 063d 3ef0 883e a0cd 11be b8a9 ad3e
00000280: 11f0 593e 3cc1 bf3e 9bba 7e3e 4c3c 243d
00000290: 794c a53b b079 82bc fb46 213e 4625 be3e
000002a0: 0c89 3bbe c6a6 47be e715 d23c 8c9e 88bc
000002b0: 6fcc ed3e 105a 233e de70 8b3e f660 a93e
000002c0: 757d 7d3b e413 963e adc4 2e3e 77d8 a33c
000002d0: 7a0f 363e 28d1 48be 6a07 7e3e e66d ed3e
000002e0: 7945 7d3e ab54 b43e dcf7 113f b2a6 103f
000002f0: e95f 483e aca6 743e d278 083f 3ec0 6f3e
00000300: 3762 6cbe da22 703e a874 163e 1567 1ebe
00000310: fa05 623d 0db8 8f3e 46bd 31bc 39af 433f
00000320: becc b63e b108 963e 9816 273f c143 173e
00000330: f037 363d fca8 0a3f fb32 6a3e 2d1a 803d
00000340: 20de ab3e 2ca4 4dbc 20c5 993d e461 603e
00000350: ff28 2abe d7a9 49bd 6ae0 2a3e a99f 0e3e
00000360: d06e 893e 98d0 893e 4304 673e adb8 3e3f
00000370: 176c 9a3e b275 3d3f c921 903d 6b70 523e
00000380: 7582 693e 8cd0 3cbd a997 b93e ae58 4c3d
00000390: 6298 b13d f3f2 963d 5af6 febc e331 fe3d
000003a0: b399 793e 4b8d 173e a828 0abe cbd5 793e
000003b0: d6f3 bd3e 51b3 473e e628 2f3e ae7b 94bd
000003c0: cd68 433e 96e9 4a3e 9c72 a13e 328e 2d3e
000003d0: 6467 d5bd 0844 123e eb7e 67bd 2c47 a63e
000003e0: 9779 913e 3872 c43e 2ec7 eabd f90e 383e
000003f0: a678 453e ae06 c13d e851 a33e 2e11 fc3d
0.052452233 0.0477776 -0.09918709 0.1606418 0.028191075 0.24667846 0.19372588 0.2587783
-0.0014635683 0.050843474 -0.46964556 0.25517422 -0.16298985 0.31520256 0.12072022 0.050491918
0.25603026 0.09460129 0.058282018 0.09767273 -0.02510519 0.32305503 0.10921643 0.29427153
0.092635885 0.11611699 -0.09494757 0.37720317 0.35579738 0.08048803 0.41598168 -0.23823728
0.26742542 -0.23343283 0.030055318 0.2841265 0.39140624 0.33498502 0.12638167 0.06759891
0.3950793 0.35054567 0.4993491 0.527698 -0.11387742 0.262316 0.27581123 -0.18753617
0.38651174 0.024651233 0.21973021 0.04253736 0.11255513 0.58096814 0.0151863685 -0.11749896
0.09479941 -0.0011319956 -0.2939232 -0.1438178 0.17537193 -0.090925306 -0.044512045 0.07872709
0.2998948 0.098137826 0.27837935 0.3154233 0.0053036413 0.21572475 0.47049692 -0.31402645
-0.14479344 0.16988432 -0.36645675 0.14252353 0.15696415 -0.027021373 0.10149454 0.31557548
-0.0072406773 0.47163692 0.24399579 0.06924025 0.2795078 0.18643752 0.3992906 0.14530227
0.1800343 0.058286864 -0.004969 -0.45088816 0.11674116 -0.34794682 0.074975535 0.120815225
-0.05554894 0.503518 0.14956194 0.2710061 -0.008817139 0.23775907 0.11657765 -0.07239745
0.10212973 0.22705185 0.4457449 0.3317344 -0.02075403 0.25445744 0.35399672 0.22674571
0.16246642 0.30346867 -0.020372212 0.12514436 0.1331122 0.08858736 0.3614543 0.07304659
0.08879004 -0.19334376 0.030052314 0.25569966 0.22434875 0.18102723 -0.005577739 0.27830052
-0.11377619 0.23063739 0.24269421 0.023868585 0.28601325 0.079124354 0.14247063 0.25257903
0.26724812 0.17526647 0.71559644 0.06955889 0.5736398 -0.03975607 0.26149383 0.14859205
-0.0727612 0.49106738 0.33226424 0.37384787 0.12051033 0.11439931 0.02746839 0.37967587
0.29610178 0.12879837 0.36512527 -0.011586499 0.032953616 0.2674579 -0.14238596 0.33918548
0.21282984 0.37452114 0.24875872 0.040096566 0.0050445166 -0.015927166 0.15749733 0.37137812
-0.18313998 -0.19497213 0.02564521 -0.016677164 0.46445033 0.15952325 0.27234548 0.33081788
0.0038679515 0.2931205 0.17067213 0.02000068 0.17779341 -0.19611037 0.24807516 0.46372908
0.24733533 0.35220847 0.5701883 0.56504357 0.19567837 0.23891705 0.5330936 0.23413178
-0.23084341 0.23450795 0.14692938 -0.1546901 0.05518148 0.28070107 -0.010848349 0.76439244
0.3570308 0.29303506 0.6526885 0.1477194 0.04448694 0.541641 0.2287101 0.06254993
0.33567905 -0.012551349 0.07508302 0.21912342 -0.16617201 -0.049234238 0.1668717 0.13928093
0.26842356 0.26916957 0.2256022 0.7450054 0.3016059 0.74007714 0.07037694 0.20550697
0.22803672 -0.046097323 0.3624852 0.04988926 0.08671643 0.07370558 -0.031123329 0.12411859
0.24375038 0.14799993 -0.13492072 0.24397962 0.37100095 0.19501998 0.17105445 -0.072501525
0.19082947 0.19815668 0.31532753 0.16948774 -0.10420111 0.14283764 -0.056517523 0.32476175
0.28413078 0.38368392 -0.11463772 0.17974462 0.19284305 0.09425102 0.31898427 0.12307964

lstm.bias_hh_l0 f4 [512]
00000000: 9d35 bb3d 9900 b43d 05a1 ffbd 590f ad3d
00000010: 6e44 ab3d eda0 6d3e 323a 3d3e cb5a 533e
00000020: d5f6 a3bc 36bd 123e 4a89 e7be 1abe a43e
00000030: 50b9 64be 11cc b33e 66a3 453e dee4 9e3c
00000040: 390d a73e 8f4b b03d 29cb 3e3d 4497 123d
00000050: 5e9b 5aba 668f a73e ac08 f63d 9b5b 643e
00000060: bce4 103e ba33 b03d cd7c a3bd fcab b23e
00000070: 4a96 dd3e 7c42 1e3d e861 dc3e 547c 8bbe
00000080: a10a 8a3e 4919 34be 3269 7d3d 6f06 8f3e
00000090: 6624 c33e 1431 a03e d33c 8b3d 0f02 e33d
000000a0: 5ca6 dc3e 20af bd3e 8149 f33e 4039 043f
000000b0: 18df bebd 1178 8e3e 45ab 393e 0010 fcbd
000000c0: 121d ca3e 3b2f b4bc a103 773e e545 b83c
000000d0: 6f14 0c3e 9e83 2c3f 57f4 853d 2392 07be
000000e0: afd4 3b3d 54a2 803c 1db7 77be c1e3 50bd
000000f0: c374 d53d 52a2 40bb 21b8 9ebd 53bf 513d
00000100: b285 a43e 3ff7 073e c76e 7d3e 8b7b b83e
00000110: 0639 a33d 208c 763e b698 013f a0b6 76be
00000120: 9578 e6bd bcfc 243e 1a63 c8be afdb 573e
00000130: 9047 1e3e 39a8 103d 24b3 713d 4255 b33e
00000140: 99de f73c e6d5 073f bded 373e df43 aa3d
00000150: 098e 933e 84fc 463e 0f02 bd3e 5367 4b3e
00000160: 526b 423e f271 da3d 2fda 723a 6fae eebe
00000170: ef6a 923d b734 d2be e0d2 4e3d 38d5 133e
00000180: e23f 753c b2cd 0f3f 177c 143e 53ca 6d3e
00000190: 6840 77bc 8cf3 963e b04c 233e 3187 6ebd
000001a0: eeed da3d a79b 213e 0415 c33e 6c42 b63e
000001b0: 6e23 3bbd d75f 483e 79f9 9e3e 6f53 3c3e
000001c0: b8d3 543e 99e9 873e 669a 88bd a340 a83d
000001d0: f6e1 293e b040 133d 8abd ae3e bb4e 4a3c
000001e0: fcc0 923d 5618 2abe bac0 00bc b23f 5b3e
000001f0: ecce 433e a8d5 2d3e 4cdb e938 b540 6f3e
00000200: b6f4 50bd ca3b 5b3e 5e3e 9a3e 4a5e f5bb
00000210: fed7 923e d96c 313e 9afc 3c3e fc4a 653e
00000220: 3b33 463e 6495 183e 85b5 443f 9ba2 8f3d
00000230: 2a74 133f 9eb9 ba3b 66e1 a03e ba3a 123e
00000240: d783 bebc 0110 f43e 11bc cb3e b6ae ac3e
00000250: 85bc 913d 3cda 3e3e 674d c13d 6405 cb3e
00000260: fd40 923e 49c5 223e b704 a63e cfa4 2e3d
00000270: 8903 7a3b de64 463e 1759 fabd 422b a63e
00000280: 29d3 453e 6d67 c03e d334 253e 105e 663d
00000290: 25d8 983d a027 8dbd 1c76 323e 87c2 d33e
000002a0: 2079 62be 7c30 46be 7a4e fd3c 737c 0c3c
000002b0: 5b4a d83e 37d6 2d3e 617b 823e 7732 8b3e
000002c0: d1a6 833d 8fed 773e 1c82 2c3e 9205 99bc
000002d0: a265 0f3e 0127 4bbe 1044 593e 6bb1 f03e
000002e0: f525 943e 1ff8 c03e 51fe 143f 9218 093f
000002f0: 0905 fc3d 19fc 5a3e 86dd 093f 03df 643e
00000300: 1ae7 51be 7604 173e ff46 e13d 272c bebd
00000310: 2a55 0d3e 51a4 823e 0c3a 563c aaca 2c3f
00000320: 1696 bb3e 3696 533e 78d3 1f3f d04c 193e
00000330: b7a8 023e 9a05 0e3f 859a 8d3e 6449 1d3d
00000340: 0a41 a83e b054 cfbd a743 903d 5950 023e
00000350: 907a b2bd 5d37 7dbb ea44 423e a1e6 3c3e
00000360: 7e30 723e 2369 463e 8860 5e3e a729 3e3f
00000370: 31ee 8e3e 8c99 453f bc05 c3bc d083 1f3e
00000380: 67f9 8b3e 9565 01bd 9354 bd3e 23db 043d
00000390: 0036 0c3e 16ec b53c c46a bfbc be0a 9d3d
000003a0: 1efe 993e 1126 f73d aaea 01be 17e3 6a3e
000003b0: dc9a b03e 954d 083e aa21 3e3e b257 0abe
000003c0: 9c15 6e3e 6982 583e ee14 893e 8c40 c43d
000003d0: c4be 25be 9902 573e ed93 6dbc 4bd2 d33e
000003e0: 94f6 8d3e 82a9 ec3e 7ca9 a6bd 5810 403e
000003f0: fe92 503e 7c98 053e 9552 893e eb38 ca3d
0.09141085 0.087891765 -0.12481884 0.08450193 0.08362661 0.2320592 0.18479231 0.20640104
-0.02001516 0.1432999 -0.4522193 0.32176286 -0.22336316 0.35116628 0.19300613 0.019396242
0.32627276 0.08608162 0.046580467 0.03578879 -0.00083391916 0.32726592 0.12013373 0.2230057
0.14149755 0.08603616 -0.07982788 0.3489684 0.43278724 0.038637623 0.43043447 -0.27243292
0.26961234 -0.1758777 0.0618679 0.27934596 0.38113707 0.31287444 0.06798711 0.11084377
0.43095672 0.37047672 0.47517017 0.51649857 -0.093198955 0.27825978 0.1813174 -0.12307739
0.39475304 -0.021995177 0.24122478 0.022494266 0.1367967 0.6738833 0.06540745 -0.1323934
0.045857128 0.015702404 -0.24190946 -0.050998453 0.10422661 -0.0029393625 -0.077499636 0.05120785
0.3213325 0.1327791 0.2474929 0.36031756 0.07969861 0.24076891 0.50623643 -0.24093103
-0.11253468 0.16112036 -0.39138108 0.21079896 0.15456986 0.03531668 0.059008732 0.35025984
0.03025751 0.5306076 0.17961784 0.08313727 0.28819302 0.19432265 0.36915633 0.19863634
0.18986252 0.106662646 0.0009264079 -0.46617457 0.07149302 -0.41055843 0.050494075 0.14436805
0.014968844 0.5617324 0.14500462 0.23221712 -0.015091039 0.29482687 0.15947223 -0.058234397
0.10689913 0.15782033 0.3810197 0.3559755 -0.045688085 0.1956781 0.31049708 0.18391202
0.2078389 0.26545408 -0.06670074 0.082154535 0.16590104 0.035950363 0.34128982 0.012347872
0.07165715 -0.16610846 -0.00785845 0.21411017 0.19121903 0.16976035 0.00011151153 0.23364528
-0.051014625 0.21409526 0.30125707 -0.007488047 0.28680414 0.17326678 0.18455735 0.22391886
0.1935548 0.14900738 0.76839477 0.070134364 0.5759913 0.005698397 0.31421965 0.14280215
-0.023256226 0.4766846 0.3979192 0.33727044 0.07116035 0.18637937 0.094385915 0.3965255
0.28565207 0.15895571 0.32425472 0.042637642 0.003814908 0.19374415 -0.12224024 0.32454878
0.19318832 0.37578908 0.16133432 0.05624205 0.07463101 -0.068923235 0.17427868 0.4135935
-0.22116518 -0.19354433 0.03092121 0.008574593 0.4224423 0.16976248 0.25484756 0.2718694
0.06428302 0.24211715 0.16846508 -0.018679414 0.14003614 -0.19839098 0.2121737 0.4701036
0.2893521 0.376893 0.58200556 0.53553116 0.12305648 0.2138523 0.5385364 0.22350697
-0.20498314 0.14747795 0.109998696 -0.09285765 0.13802019 0.25515988 0.013075363 0.6749674
0.36637944 0.2066277 0.6243205 0.14970708 0.12759672 0.554773 0.27656952 0.03840007
0.3286212 -0.10123575 0.07044154 0.12725963 -0.08714783 -0.0038637735 0.18971601 0.18447353
0.23651311 0.19376044 0.21716511 0.74282306 0.279161 0.7718742 -0.023806445 0.15577626
0.27338716 -0.031591017 0.36978588 0.032435548 0.13692474 0.022207301 -0.02336634 0.076680645
0.3007669 0.120678075 -0.12687173 0.2293819 0.34493148 0.13310845 0.1856753 -0.13510016
0.23250431 0.21143498 0.2677378 0.09582624 -0.16186053 0.20997085 -0.0145006 0.41371378
0.27727187 0.46223074 -0.08137795 0.18756235 0.20368573 0.1304645 0.26820818 0.098741375

lstm.weight_ih_l1 f4 [512, 128]
00000000: 861a ffbc 0eaa 69bd e06a a0bd c5ee 4a3d
00000010: 8813 a7be 41f9 8cbe 35cf 8ebd 0dd2 8abd
00000020: 315e 6c3d e796 43bd f579 0b3e 7094 20be
00000030: a74f 05be 37c8 38be f6de ea3c dc71 3abd
00000040: 2a36 813d 5588 9bbb 2a8c 38bd 5033 7d3d
00000050: a268 efbd e930 2fbe 47ed 90bd e8a8 cbbd
00000060: 405c 123c 2667 8e3e 7dd5 14be b73f 0b3e
00000070: 2ce3 653e 8fd2 11bd ff5c 683d 4183 03be
00000080: c6f1 1e3e 5afb 163d 7f0b 963b 24f1 9c3a
00000090: 83dc 083e 2983 33bd bfc5 8e3d 4512 2dbd
000000a0: c92f 59bb 6a7a dd3d 10a4 b93c fc07 9abd
000000b0: 8923 8bbc e75e e0bc 9327 c73d f77f df3b
000000c0: c8ff d5bb bd59 1dbd 2743 293d d33b 70bd
000000d0: fe0f 703c 42bb cdbd da24 6d3e d736 c8bc
000000e0: 0c07 e93d 16fa 37bd 770e c53d 1d9a 783d
000000f0: b2b4 f43d 63e2 5c3e 1538 5d3c 226b a7bc
00000100: 1caf 5e3d a048 89bd 3c61 d9bd 1dd2 3ebd
00000110: 9384 86be 8824 69bd cc36 463c 7cb5 0a3e
00000120: 7d25 3ebe 2e3e e23d 4cb9 823e ac1e 1bbc
00000130: 2f13 65be f3db 2d3d ceea 213e 731d 1b3e
00000140: b3b5 99bd a171 13be baa7 9cbe 569f 853d
00000150: 80c5 d1bd 196e f3bd ffa7 ec3d 1225 643d
00000160: d17d 113e 142c 913d d0e5 48bc f62e 58be
00000170: e3de 8d3d 5fa3 b23c 5465 3bbe 10ef 803e
00000180: 6752 bc3b ae51 103c 9ddf 603e 8a19 be3b
00000190: 02cb f73d ccc8 8f3d 7cdd 50be 75ad 163e
000001a0: 3eda c7bd 318b 263e d589 c73d 90a0 993e
000001b0: 2943 b4bd 4e5c febd a710 cc3d 9911 89bd
000001c0: 95e7 c33d c17a d93c 75a8 293d e260 833d
000001d0: caae b33d 0f85 473e fce3 833d f2fb 943d
000001e0: a7f9 f13d a91e 2abd 1c45 4dbe e5ce 0fbe
000001f0: 8ad4 793a 5d1e 963c 4805 b8bd 715a 3d3e
00000200: 2d74 1fbd eae0 64be ce47 633e 27ee e43d
00000210: a6d8 ec3c 328a edbd 7775 eebd bbd0 983d
00000220: 623e f3bc d68b aabd 230c 98be 0b1b b8bd
00000230: 911c 95bd c3e6 d6bd 71ed 3ebd 6d02 1c3e
00000240: bcc8 0bbd 249c 113e c8d8 63bc 9acb 0f3d
00000250: c824 ffbd 51e6 8f3d c1e2 823d 9f21 4cbe
00000260: e231 8dbc c49a 79bd 8d55 17be a234 0b3e
00000270: ebce ec3d a0e7 563d 447e 263d 9497 9d3e
00000280: c7c2 61bd 225f 90bc 4537 c6be ad6e babd
00000290: 0a49 b4bd fc8b 5fbd d032 febc 67f8 93be
000002a0: 63a0 e3bb 3cf7 ad3c 45a9 56be e24b aebd
000002b0: d857 dd3d 148b 0dbe 5380 6dbd b920 de3c
000002c0: 0479 143e ab38 aebc b451 ccbd 2143 5dbe
000002d0: 3ca1 013e 0b88 b13d 6adb 463e e642 3f3e
000002e0: 2347 33be b3f7 633a 6460 5b3c de0f 593d
000002f0: b20e ed3c 675f 40be c457 1c3d e5e7 383d
00000300: 6b7a 73be 320a 003e 0c05 c73d 1208 28be
00000310: 0cd6 c43d d9a3 a3bc 10bb 92bd 00df 5abd
00000320: 0b59 2bbd 5fa5 0e3e 7351 973d 1429 663d
00000330: 9d6e c83d 53ec e0bc c016 123c 420f ddbd
00000340: 4186 d23c d5ab 82bd 4971 203e 34db 743d
00000350: 8ed1 0e3e b080 cebe ff01 963c ff12 ae3d
00000360: 3548 12be bd18 0fbc 45e0 063e 3d04 883e
00000370: 1115 bfbc edc2 fe3c 19b2 7a3d ede7 023e
00000380: 846c c43e 2576 8b3c 936d 9f3d 0f09 643e
00000390: 162d 16be 8b7a 9dbe af5c bf3d 0873 df3d
000003a0: f155 47be 6cf7 083e 8f83 dcbd f746 313e
000003b0: 6622 93bd 87a2 aa3d ad09 0ebe 0086 56bd
000003c0: a038 063d 49a8 0f3e ec00 7c3e 5fc2 e8bb
000003d0: a6cc d2bc 942e a1be 328d e3bc be0b fd3d
000003e0: 0be3 b03d bc5c 123e 56e3 c13b 15d7 7dbd
000003f0: 6e08 bdbc 143c d93c 64cd e83c 7ad6 6dbd
-0.031140577 -0.057046942 -0.07832885 0.049544115 -0.3263209 -0.27533916 -0.06973115 -0.06778345
0.057707015 -0.047751334 0.13620742 -0.15681624 -0.13018666 -0.18045126 0.02867077 -0.04551874
0.06309159 -0.0047464767 -0.045055546 0.061816514 -0.11689879 -0.17108501 -0.07076507 -0.09944326
0.008933127 0.2781307 -0.14534564 0.13598524 0.2244994 -0.035601195 0.056729313 -0.12843038
0.15521917 0.0368608 0.004579007 0.0011973721 0.13365369 -0.043826256 0.06971311 -0.04225375
-0.0033140054 0.10814364 0.022661239 -0.07521054 -0.016984718 -0.027389003 0.09724345 0.0068206745
-0.0065307356 -0.03841566 0.041323807 -0.058650803 0.01465225 -0.10045482 0.23158589 -0.024440212
0.11378297 -0.044916235 0.096218996 0.06069385 0.119485274 0.21570735 0.0135021405 -0.020436827
0.054366216 -0.06703305 -0.10614249 -0.0465871 -0.2627302 -0.056919605 0.0120980255 0.13545793
-0.18568988 0.11047016 0.25531995 -0.009467762 -0.22370599 0.042446088 0.15812227 0.15147953
-0.075053595 -0.14398815 -0.30596715 0.065245315 -0.10242748 -0.11886234 0.1155548 0.055699416
0.14208151 0.07088485 -0.012261823 -0.21111664 0.06927278 0.021806417 -0.18300372 0.2518239
0.005747128 0.008808536 0.21960302 0.0058013843 0.120992675 0.07020721 -0.2039699 0.14714606
-0.09758423 0.16264035 0.09743086 0.30005312 -0.08801872 -0.124199495 0.09964114 -0.066928096
0.09565655 0.026547791 0.04142042 0.06414963 0.08773573 0.19484352 0.06439969 0.07274617
0.118151955 -0.041533146 -0.20045894 -0.14043768 0.0009530267 0.018325025 -0.08985382 0.18491532
-0.038929153 -0.22351423 0.2219536 0.111782365 0.0289119 -0.11598624 -0.116434984 0.07461687
-0.029692832 -0.08327453 -0.2969676 -0.08989533 -0.07280839 -0.10493233 -0.04661316 0.152353
-0.034126982 0.14219719 -0.013906665 0.03510628 -0.12458187 0.07026351 0.06390906 -0.199347
-0.0172357 -0.06093861 -0.14778729 0.13594297 0.11562904 0.05246699 0.04064776 0.30779707
-0.055117395 -0.017623488 -0.38714042 -0.09103141 -0.088029936 -0.05457686 -0.031030089 -0.28900453
-0.00694661 0.021236055 -0.20963009 -0.08510567 0.108077705 -0.13822585 -0.057983708 0.027115213
0.14499289 -0.021267256 -0.09976521 -0.21607639 0.12659162 0.08668526 0.19419637 0.18677863
-0.17507605 0.0008696273 0.013389681 0.052993648 0.028937671 -0.18786393 0.038169637 0.045143027
-0.23777167 0.12503889 0.097177595 -0.16409329 0.09611139 -0.01997559 -0.071645856 -0.053435326
-0.041832965 0.13930272 0.07388582 0.05619152 0.09786723 -0.027456438 0.008916557 -0.10793926
0.025698783 -0.063804306 0.15668215 0.05977936 0.13947126 -0.40332556 0.018311499 0.08499717
-0.14285357 -0.008733925 0.1317149 0.26565734 -0.023325475 0.031098807 0.061205003 0.12783785
0.3836404 0.01702411 0.077845715 0.2226908 -0.14665636 -0.30757555 0.0934385 0.10910612
-0.19466378 0.13375634 -0.1076728 0.17312227 -0.07184295 0.08331781 -0.13870879 -0.052373886
0.032768846 0.1402904 0.24609727 -0.007103249 -0.02573235 -0.3148085 -0.027777288 0.12355755
0.08637055 0.14293188 0.005916993 -0.061972696 -0.023075309 0.026517905 0.02841825 -0.05806587

lstm.weight_hh_l1 f4 [512, 128]
00000000: da7e 4bbe aef8 be3e 1467 bd3c a415 c1be
00000010: 971c 7f3e 32f4 133f 5f7d 163e a56a d13d
00000020: 263f a4bd bf0a 9d3e d91b 41bd 2bd7 473d
00000030: eff6 933d 10a6 0abe 8cd5 123e 6ada ef3d
00000040: 52a1 53be d877 903d 3512 173d 52fb c93d
00000050: 3f6a 243e 567d b53d 6c60 9cbe 2dc4 093f
00000060: ff73 9c3e 791d 96bd e957 ac3d 4127 ddbe
00000070: 714a 533d bbce ca3d d5bc 2fbd ff42 2dbe
00000080: 6010 8bbc b891 f1bd e918 6fbe 38e7 073e
00000090: a0b3 04bf e8a1 123e 8b06 273e 34e3 7d3e
000000a0: 7b85 87be 04c9 833d d89d 293e 14f9 a33d
000000b0: c9e9 4f3e ad88 4abd 71f1 603e 8e59 90bc
000000c0: 87e0 0dbe 2335 033f b704 643d cecb 163e
000000d0: 8b4b ba3d 2a0c b43d 661f 2f3e f55a b63c
000000e0: a976 0cbd 2aa0 933d 6839 503e 26ef acbe
000000f0: 12cf 6e3e bdd1 413f a351 b2bd f47d 26be
00000100: a9d3 843e d8cb ef3e f3ba 01bc dd42 e63d
00000110: 477c c03c fab2 973b caea 2bbe 72ef 3f3e
00000120: 5586 6d3e 6f18 30be aec3 cfbc abf0 bb3d
00000130: 86c7 f5bd 5a98 083e ff6f 4e3e 49ce c9be
00000140: 3a56 ce3b 1824 b7bd 301c a53e 5424 1d3e
00000150: f38e 8bbe 933a 823e 713a 443c 846d 663d
00000160: e02a 49be 34a0 60be aeb8 ec3e 63c6 99be
00000170: 82de 0b3f 30a3 e83e 3b73 183f f474 7abe
00000180: c601 e0bd d0eb 95be 5cec db3d c755 05bf
00000190: 3982 a63e b351 603d cfce 363e d9e3 d03e
000001a0: b05a ebbe 9705 003e 607f f2be e07c b0be
000001b0: 290f 32be 3512 83be 5993 37be 5f3a 8a3e
000001c0: 850d 85be ff62 453f 5fe5 823e 7c45 693d
000001d0: 078f 643e 23a2 f7b7 7de3 523d 1497 313d
000001e0: e7e5 20bf bc12 ac3d 6068 6e3e c61c 22bf
000001f0: 0962 033d 6d1f cb3e ab15 89bd 14a9 a4be
00000200: 21d4 2d3f cdc2 2f3f f270 9c3e 4fc6 b43d
00000210: e656 a3be 943d 81bc 8616 443d 3569 0d3f
00000220: 590c 82bd 9041 febd 9a6d bebc 1351 dbbd
00000230: 3c68 76be 994f 6a3e 3b41 97be 23ef 653e
00000240: e83e ca3e 7b5c 28be fb37 123f bbca 09be
00000250: d5c5 74be e39f a3be 9d50 4dbe dd08 1abc
00000260: 16e8 093c 05fa aebe 0241 123f d801 3abe
00000270: 9084 19bf fe17 52be 5a65 4dbe 3627 a0bc
00000280: c203 533e 4040 8e3c c357 8dbe 5720 4c3d
00000290: cd15 b63d 7b12 ad3e 7276 f3be 1a62 b2be
000002a0: 6056 bebe c192 f3be aa0a b8bd 8371 a8be
000002b0: e059 fc3c 341c 413e 993f 8b3e a9e7 943e
000002c0: 5ebe efbc f5a5 e9be 8345 8d3e 02b5 f73d
000002d0: c1f2 99bc 85c3 4cbc f77d b13e d401 cd3e
000002e0: 9285 dc3d 112d d0be df2d 9b3e 518e 8b3c
000002f0: 67e6 303f 6b98 003d 2ced 4e3d e22e 913c
00000300: 20de 233e 451c 35bf 172b 0cbe b30c c13e
00000310: 2102 c8bd 818b 0d3e 21cf 163e d456 353e
00000320: 8d88 323e ee70 2abe a39d a1bd 4dcb 37be
00000330: 61a0 06be 32ce 343e 684e ccbe 1a7b d63d
00000340: 9824 dd3d ddda 22be e3d7 0bbd e5ff 173f
00000350: cd97 0bbd 6888 a5be a3fc 383e c0d8 ffbd
00000360: 4b32 15be 347e b7be d623 04be aac5 dbbe
00000370: a40d ffbe b0ee 42be 4dda 8a3b e3f8 2d3e
00000380: 4785 a7be af7d 71be 6886 883e c7d2 f33e
00000390: a30e 0c3e 9b51 f73d b528 40bf c89d 91bd
000003a0: 1165 ce3a ef83 c33e adf1 a83e 625a 693e
000003b0: 1764 61bf 7b02 ba3d 0646 66be 1586 d3be
000003c0: 899c 403e 0c97 3fbe 5841 723e f864 38be
000003d0: 36b5 d0be 77a2 cbbe 1029 d23e bf88 b0be
000003e0: bf85 e7bd 24a2 ea3e 4095 89be 4bf7 d4bd
000003f0: d050 ea3d e33b e33c fead 59be 920d 293d
-0.19872609 0.37299103 0.02312044 -0.37711823 0.2491325 0.5779449 0.14696263 0.10225419
-0.08019857 0.3067226 -0.0471457 0.048789185 0.07224833 -0.1353991 0.14339274 0.11711581
-0.20667008 0.070541084 0.036882598 0.09862389 0.16056155 0.088617966 -0.30542314 0.53814965
0.30557248 -0.0732984 0.08415205 -0.4319401 0.051584665 0.09902712 -0.042904694 -0.16920088
-0.016975582 -0.11795372 -0.23349346 0.13271797 -0.51836586 0.14319575 0.1631109 0.24793702
-0.26469025 0.06434825 0.16564119 0.08006492 0.20304026 -0.04944675 0.21967103 -0.017620828
-0.13855182 0.51252955 0.05566856 0.14726183 0.0909644 0.087913826 0.17101821 0.022260169
-0.03429285 0.07208283 0.20334399 -0.33776206 0.23321179 0.7571066 -0.08706977 -0.16258985
0.25942734 0.46835208 -0.007918107 0.11243222 0.02349676 0.00462949 -0.16788784 0.18743685
0.23195775 -0.1719682 -0.025361862 0.09176763 -0.12000947 0.13339368 0.2015991 -0.39415196
0.0062969 -0.08942431 0.32248068 0.1534589 -0.272575 0.25435314 0.011976824 0.056256786
-0.19645262 -0.21936113 0.4623465 -0.3003417 0.54636395 0.45437002 0.5955083 -0.24458677
-0.10937838 -0.29281473 0.10738441 -0.5208401 0.32521227 0.054765414 0.17852329 0.40798834
-0.45967627 0.12502132 -0.47362804 -0.34470272 -0.17388596 -0.25599828 -0.17927302 0.2699766
-0.25986877 0.7710418 0.2556562 0.05695103 0.22320186 -2.9520195e-05 0.05148648 0.04335697
-0.62850803 0.08402011 0.23282003 -0.63325155 0.032075915 0.39672413 -0.06693586 -0.32160246
0.6790181 0.6865662 0.3055492 0.08826887 -0.31902236 -0.015776433 0.047873043 0.5523866
-0.063500114 -0.12414849 -0.023245621 -0.10708823 -0.240632 0.22881927 -0.29541954 0.22454505
0.3950112 -0.16441528 0.5711667 -0.13456242 -0.23903592 -0.3195792 -0.20050283 -0.009401527
0.00841715 -0.34175125 0.57130444 -0.18164766 -0.599679 -0.20516965 -0.20058194 -0.019549947
0.20606902 0.017364621 -0.2760602 0.04983553 0.08890877 0.33803162 -0.47551304 -0.3484047
-0.37175274 -0.47572902 -0.08986409 -0.32899103 0.030804574 0.18858415 0.2719696 0.29082993
-0.029265579 -0.45634428 0.27592096 0.120950714 -0.018792512 -0.012497787 0.34666416 0.40040457
0.10767664 -0.40659383 0.30308434 0.017035635 0.69101566 0.031395357 0.050519153 0.01772255
0.16002703 -0.7074626 -0.13688312 0.37705 -0.09766031 0.13822748 0.14727451 0.17708904
0.17434902 -0.16644642 -0.07891395 -0.17948647 -0.13147117 0.17656782 -0.3990357 0.104726985
0.10797995 -0.15903802 -0.034141432 0.5937484 -0.034080315 -0.32330632 0.18065123 -0.12492514
-0.14569966 -0.35838473 -0.12904295 -0.42924243 -0.49815094 -0.19036365 0.0042374493 0.16989474
-0.3271887 -0.235831 0.26665044 0.47621748 0.13677458 0.12076112 -0.75062114 -0.071101725
0.0015746673 0.38186595 0.32996884 0.22788385 -0.8804335 0.09082504 -0.2248765 -0.41313234
0.18809713 -0.18709964 0.23657739 -0.18007267 -0.40763253 -0.39772388 0.41046953 -0.3447933
-0.11304807 0.45826828 -0.2687168 -0.1039873 0.11441195 0.027738517 -0.21257779 0.041272707

lstm.bias_ih_l1 f4 [512]
00000000: 0d1b 68b9 1d18 fcbd 3eeb 973d e207 573d
00000010: 6d99 d93c f71a a6bd b5a8 013f 581b 54be
00000020: e06d 633e 8296 36be 5216 4f3e 19b3 11be
00000030: afc4 8a3e 2f37 41be fc39 b2bc c076 863d
00000040: ac41 6d3c 754a 8c3d 3a47 923d 1b7a 963c
00000050: 29d5 39be 880f ba3d d8b3 a13b c37a 123e
00000060: e239 3dbe 01bf 203e 5cd9 54bc b216 5bbe
00000070: a95e dabd bf1b e6bd 4fc9 91bc a004 f33d
00000080: 8b08 ea3e db06 693c 91ba ddbc 8d9b 08be
00000090: 5ec2 9e3d 3adc f0bd 3373 84bd e186 693d
000000a0: 491e 3a3e 3e1d 6f3e 86b3 b9bd 578c 29bc
000000b0: 872e 81bd bee8 cfbd ae3b 023e 1070 cb3d
000000c0: 7b4e 1cbe 632f 0f3e 3721 683e b817 4f3e
000000d0: 5858 1c3e f8b2 303c e93d 1b3e a43e a4bd
000000e0: d8e6 003b 2f30 383c dfc6 a73d 7e0f 73be
000000f0: bb49 333e 6b89 9ebd 46a9 dc3d 0811 ce3a
00000100: d601 a03c 65e3 083d a15c 0bbe 610e 6dbe
00000110: d778 09bf b624 833e d7ce 54bd 4092 2ebd
00000120: 145e b4bd 45c1 f2bd 266f 293e 6ed5 973d
00000130: c020 83bd 4d2f 193c 6a9c 043d c271 f93d
00000140: 6383 873e 2f7c 72bd 9d0d 713d d9bf 973c
00000150: 7ec8 91bd 8fb6 1c3e 1580 a93e 939d f6bd
00000160: f9ab 89be 81a6 633e d596 a23d 0d73 70be
00000170: d260 69be cdac e93d c25c 853d 386a 3e3e
00000180: 1788 a83e 8455 5e3b 4e93 4d3c 9660 e33c
00000190: 9500 093f 3094 29bd b112 85be 303c 2bbb
000001a0: 4e7e cbbc 9a55 86bb 5d96 043d e11e 19be
000001b0: f117 2cbe f936 983e 0cba adbd 9190 42bc
000001c0: 6609 073e 6bf9 e83d d212 493e a7c8 32be
000001d0: d5ef 203e d70d 123e 14d5 55bd 2082 df3d
000001e0: c4f3 27be 0d57 fa3d f1d3 88be c94b 87be
000001f0: ed0e 243e b7eb 3e3e b82a 0f3d 2640 98bc
00000200: 2dc3 603e 1f09 e63c bfe8 7fbd c3b0 51bd
00000210: 0157 4bbd a2da 3a3d 0b07 d23c 24c8 ec3d
00000220: 187b a73d eb36 2fbe 4396 a43b 88b4 3a3e
00000230: bd29 0cbe 81e1 8e3e d7d6 b0bd 608d b5bb
00000240: 6119 66be 1c38 7e3e c3a0 c0bd 82f5 f4bc
00000250: 7b7d 163d d211 c9bd 7c22 c4bc 249a 933d
00000260: cafe 123d aac4 50bd d406 883d 86b0 523c
00000270: 73d9 943d 5ddb b93d 4ae2 183e 2e43 1f3e
00000280: f2da 46be 24c0 a5bd f2b0 583e e1b6 14be
00000290: 0a3b ce3d 13c1 5b3e 57ef b23e 7d3f 403e
000002a0: 80a2 3dbe 533e 3ebe 4ff6 c53e b969 993d
000002b0: 2e4b f13d 6bab 6f3c 6829 b8bd c891 413d
000002c0: 35b1 f23e 4406 393e 2cb2 6e3d 0d66 2c3d
000002d0: 2eda 093d c38a 393d a40b 023e 482a 953d
000002e0: ab30 3cbd e2dc 563d 043d bc3d ce14 4e3e
000002f0: 3db7 7fbd 9125 183e bd44 033e 59b0 bd3d
00000300: 1864 6e3e 4839 36bd dfc5 023e 4e83 423e
00000310: d5ad 883f 2a30 3c3e 5d2a fcbd 0392 e73c
00000320: ecc4 663d abdf e1bc dab2 43be cc0b 2a3b
00000330: 3a4e bebd 05a5 03be 8723 dd3d fcf2 68be
00000340: eef8 04bc 526e 6bbe 9517 1fbe a59e 353d
00000350: d492 0c3e b9ab 7eba 7da2 533d 1398 43bd
00000360: 6bd4 993e 055f 60bb 49fc 89be 3eaa 753d
00000370: a362 9d3e 6c77 dabb fffa 903e 3660 d4bd
00000380: adc2 27be 0e1e 2d3e f5fc 6d3d 94f6 543e
00000390: fc23 06bf 8686 423e 6107 4c3e 197f 6abe
000003a0: ac44 b6be ae15 613d 8fae ae3d 0a7f 173e
000003b0: 1f3f 84bc 567f 6fbd e483 10be 8493 c23d
000003c0: 71fe 91bb d1c2 363d daa3 ce3d 8d27 c8bd
000003d0: 058d 133e 41be 273e 5c3b 683d 51cc 353e
000003e0: 5209 453e 72d7 b03d 3b96 933d c8a6 03bc
000003f0: fbc0 7ebd 6be6 4a3d a4ef 363d 2c24 d83d
-0.00022135321 -0.12309287 0.07417916 0.052497752 0.026562417 -0.08110612 0.5064805 -0.20713556
0.22209883 -0.17830852 0.20223358 -0.14228477 0.27103183 -0.18868707 -0.021756165 0.065656185
0.014480989 0.06850139 0.07142492 0.018368771 -0.1814772 0.090849936 0.004934769 0.14304642
-0.18479112 0.15697862 -0.012991276 -0.21395376 -0.10662586 -0.11235761 -0.017796187 0.118661165
0.45709643 0.014222826 -0.0270665 -0.13340588 0.07751916 -0.11760755 -0.06467285 0.057013396
0.18175615 0.23350999 -0.090674445 -0.010348401 -0.063077025 -0.10151814 0.12718078 0.099334836
-0.15264313 0.1398292 0.2266892 0.20223892 0.15268075 0.010784857 0.15160336 -0.0801976
0.0019668844 0.011241957 0.081922285 -0.23736379 0.17508595 -0.07741054 0.10774474 0.0015721628
0.019532125 0.033419985 -0.13609554 -0.23150016 -0.5370001 0.25613946 -0.05195507 -0.042619944
-0.088070065 -0.118532695 0.16546306 0.07413755 -0.06402731 0.009349656 0.03237573 0.12179901
0.26467428 -0.059200462 0.058850873 0.018524097 -0.07118319 0.15304016 0.3310553 -0.12041774
-0.26889017 0.22231485 0.07938925 -0.23481388 -0.2279084 0.11409912 0.06511833 0.18595207
0.32916328 0.0033925483 0.012547327 0.027756017 0.53516513 -0.04140109 -0.25990823 -0.0026128404
-0.0248405 -0.00409956 0.03236996 -0.14953186 -0.16806008 0.2972944 -0.08482751 -0.011875288
0.13187179 0.11375698 0.19636086 -0.17459355 0.15716489 0.14263092 -0.05220516 0.10913491
-0.16401583 0.12223635 -0.26724198 -0.26425007 0.16021319 0.18644606 0.03495285 -0.018585276
0.21949454 0.028080521 -0.062477823 -0.051193964 -0.04964352 0.04561866 0.025638124 0.11561611
0.08177775 -0.17110793 0.0050227954 0.1823293 -0.13687797 0.2790642 -0.086347274 -0.005540535
-0.22470619 0.24826092 -0.09405663 -0.029902223 0.03674076 -0.09817852 -0.023942225 0.07207134
0.035887517 -0.050968803 0.06641927 0.012859469 0.07268038 0.09075043 0.14930072 0.15552971
-0.19419459 -0.080932885 0.2116125 -0.14522888 0.100698546 0.2146037 0.34948227 0.18774219
-0.1851902 -0.18578462 0.3866448 0.07490868 0.117819175 0.014628272 -0.089922726 0.04725817
0.47400823 0.18068796 0.058275387 0.04208951 0.033655338 0.04529835 0.12699753 0.07283455
-0.04594485 0.052456744 0.09191325 0.20125124 -0.06243061 0.1485808 0.1281919 0.09262151
0.2328037 -0.04448822 0.12770794 0.18995401 1.0678049 0.18377748 -0.12312768 0.028267866
0.056340143 -0.027572474 -0.19111195 0.0025946973 -0.09292264 -0.12855919 0.10797792 -0.22748941
-0.00811599 -0.22991303 -0.1553634 0.04434075 0.13727885 -0.000971492 0.051668633 -0.04775245
0.30044875 -0.0034236324 -0.2695029 0.05997681 0.30739316 -0.006667068 0.28316495 -0.10369913
-0.16382857 0.16905996 0.058102567 0.20797187 -0.5239866 0.18996629 0.1992469 -0.22900046
-0.35599267 0.054952316 0.08529388 0.14794555 -0.01614338 -0.058471046 -0.14112812 0.095007926
-0.0044553806 0.044619385 0.10089846 -0.09773169 0.14409263 0.1638117 0.056697235 0.17753722
0.19241837 0.08634843 0.072063886 -0.008035369 -0.06219576 0.04953615 0.044662133 0.10553774
