model/bi_lstm/best_model_fold1.pt (torch, 988002 bytes, 13 tensors)

token_emb.weight f4 [75, 64]
000000 f2 0d 8b bc 48 79 74 3a 94 d3 a7 bc e2 5e 0a bc
       -0.016974423 0.00093259336 -0.02048663 -0.008445473
000010 6f 2f 0e 3b c9 bd b1 b7 a0 65 bb bb 96 94 47 3c
       0.0021695753 -2.118842e-05 -0.0057189018 0.012181422
000020 57 74 71 ba ee c5 08 bb 70 96 90 b9 8c 5d c6 bb
       -0.00092107564 -0.0020869928 -0.00027577905 -0.006053632
000030 60 3b 66 bc c5 5d c4 bb ab e6 a8 3b 37 5a 4b bc
       -0.014052242 -0.0059926235 0.005154451 -0.012411646
000040 eb b0 3a bc 67 bb 97 3b fa 51 7c bc d7 72 b6 b7
       -0.01139472 0.0046304944 -0.015400404 -2.1749567e-05
000050 29 2c ee bc f4 0d 43 3b ce f6 a1 3b 1b c0 22 bc
       -0.029073792 0.0029762955 0.0049427515 -0.009933497
000060 3e ff 73 bb f8 34 fd 3b 56 91 9e 3b e3 3a a6 3c
       -0.0037230994 0.0077272616 0.0048391027 0.020291751
000070 c6 16 31 bc 6e 42 ca 3b 81 3a 93 3b d3 e6 0f bc
       -0.010808652 0.00617247 0.004493058 -0.00878306
000080 cc 68 7a bb 61 e4 f5 bb f7 5f 58 3c eb 38 74 bc
       -0.0038209436 -0.0075040315 0.013206474 -0.014906148
000090 51 8c d5 bb 6a 8a a4 39 8c 80 47 3c 2b 2c 0a 3d
       -0.006516971 0.00031383644 0.012176644 0.033733528
0000a0 e0 a0 e9 3b ce 49 93 ba 30 ca 0c 3c 15 84 55 3b
       0.0071297735 -0.0011237205 0.008593127 0.0032579948
0000b0 ed fc e4 bc ce 31 cd bb e5 ba 94 bc 18 e1 05 3c
       -0.027952636 -0.0062620407 -0.018155525 0.008171342
0000c0 32 04 a5 bb 75 6f 7b 3c fe 0c d5 3b c0 62 8d 3c
       -0.0050359005 0.015346398 0.006501793 0.017259002
0000d0 17 26 d8 3b 51 d5 c0 3c 1d f7 c2 b9 a9 b3 24 3c
       0.0065963375 0.023539217 -0.00037186677 0.0100526
0000e0 8d 2a bf ba b1 d3 b8 bb e4 70 84 3b 29 e7 12 3b
       -0.0014584825 -0.00564047 0.004041778 0.0022415614
0000f0 e4 c3 0b bc 47 2a 1b bb e4 c0 13 bc 5a dc 9d bc
       -0.008530591 -0.0023676322 -0.009018157 -0.01927011
000100 da 3b 19 3e 46 88 df be 53 8e dd be 06 3c a9 3e
       0.14964238 -0.43658656 -0.43272647 0.33053607
000110 94 a9 da 3d c2 ed 19 3e c8 f9 b5 3e d6 5a 30 3e
       0.10676876 0.15032104 0.3554213 0.17222151
000120 16 7c ad 3d 7f 8e 33 bd 37 16 01 bf 4a 2d 5b bc
       0.08470933 -0.043837067 -0.5042452 -0.013377497
000130 15 9d 31 3e de 07 1a 3e c9 c4 02 3f 60 59 86 be
       0.17345078 0.15042064 0.5108152 -0.26240063
000140 6e 87 9a 3e b3 28 0f 3f 75 af b9 3e 03 74 2b bc
       0.3018145 0.5592148 0.36266676 -0.010464671
000150 17 49 72 3e 1c ae ad 3d cb 7f 41 bd 60 6f 76 3e
       0.23660694 0.08480474 -0.047241013 0.24065924
000160 18 de 56 bd 43 fb a6 3e 44 97 de 3d ed b0 1c be
       -0.0524579 0.32613572 0.108686954 -0.15301867
000170 fa 5c af be 49 9f 3a be 2a e2 ce be 6c 7b e6 3e
       -0.34250623 -0.18224825 -0.40406924 0.45016038
000180 c3 e6 8a be cf 22 f1 3d ea 4e 85 be 92 44 74 3d
       -0.27129182 0.11774217 -0.2603677 0.059635706
000190 25 06 4a be da ea b7 3e d3 a7 87 be 6d c5 fe 3e
       -0.19728906 0.35921365 -0.26495227 0.4976
0001a0 ae a4 67 bd 76 9e 13 3f 7b a7 6d 3e b4 b4 a8 be
       -0.056553535 0.5766367 0.2320842 -0.32950366
0001b0 7f 3a 2d 3f 68 06 58 be 33 28 00 3d 32 f7 6a 3e
       0.6766738 -0.21096194 0.031288337 0.2294586
0001c0 85 5e c7 3e 8b 39 33 be 66 cf f4 3d e5 18 01 bc
       0.389393 -0.1750242 0.119536206 -0.0078794705
0001d0 46 b4 a5 be 3e 67 ea 3c 7c 90 c4 3e c1 a4 a0 3e
       -0.323641 0.028613683 0.38391483 0.31375697
0001e0 a3 65 2a bd a8 9f 6d be a1 9f 21 3e 07 f4 5c bd
       -0.041600835 -0.23205435 0.1578355 -0.05394366
0001f0 3d bc ae be 5e 7b 00 3f eb dc d1 3e 0c 13 b7 3d
       -0.3412799 0.50188243 0.4098886 0.0893918
000200 09 37 6c bc 46 09 17 3c ac 6d 56 bc 6f 62 42 bc
       -0.014417418 0.00921852 -0.013087671 -0.011864289
000210 16 c3 73 3c 16 48 a7 bb 2c d5 04 3c b7 4f bb 3b
       0.014878055 -0.005105029 0.008107465 0.00571629
000220 33 b1 e4 bb 4e 63 d3 bb f6 d5 71 3c d5 a6 95 bb
       -0.0069791316 -0.006451047 0.014760485 -0.004567007
000230 96 1b 00 3d 7c 76 91 3c 29 5f 76 3b 12 2e 8d bb
       0.031276308 0.017756693 0.003759334 -0.0043084705
000240 4a f4 74 3c 1b 20 03 bc 19 e7 35 3c 5d 34 9c 3a
       0.014950821 -0.00800326 0.011102461 0.0011917461
000250 45 49 27 bc 41 46 47 bc a8 97 ae bc 84 83 30 3c
       -0.01021034 -0.012162746 -0.02131255 0.010773543
000260 e0 c8 08 3c 3e cd 9a bc 12 48 82 ba 50 cb 81 ba
       0.008348674 -0.018896695 -0.0009939692 -0.0009902511
000270 6e aa 31 bc 9a a9 72 bb 25 77 28 bb 12 ee 34 3c
       -0.010843856 -0.003702736 -0.0025705781 0.0110430885
000280 95 59 5c 3c ec 40 11 3b bd be 95 39 7f a6 82 ba
       0.013449092 0.002216394 0.00028561606 -0.0009967833
000290 75 99 06 3c 48 5f 1a bc 94 89 64 3b 6f ec 80 3c
       0.008215298 -0.009422131 0.0034872042 0.01573774
0002a0 d6 27 30 bb 97 fe 6a bc ef e1 18 bc 82 86 82 bb
       -0.0026879213 -0.0143429255 -0.0093312105 -0.0039833197
0002b0 9c 86 2e 3c 56 8f 95 3c d6 1d e8 ba b3 5e e0 3b
       0.010652211 0.018256824 -0.0017709087 0.0068472265
0002c0 89 89 80 3c ad df 14 3c 6d 0b df 3c 79 c9 79 bc
       0.015690582 0.009086532 0.027227128 -0.015245789
0002d0 28 45 99 3b 65 00 a0 bc 78 43 aa bc df 44 d8 bb
       0.0046774335 -0.019531438 -0.020784125 -0.006600007
0002e0 a2 bc 25 3c 8a 39 09 bc 52 78 da 3b da e1 d3 bc
       0.010115774 -0.008375535 0.0066671753 -0.02586453
0002f0 1c 5b c2 3c 62 b5 02 bc d9 49 30 bc 46 78 3b bc
       0.023725085 -0.007977815 -0.010759794 -0.01144225
000300 69 7c 52 bb 03 63 91 3c e6 d9 68 3c 74 f3 0f bc
       -0.0032117611 0.017747408 0.014212107 -0.008786071
000310 ea 67 01 bc 47 30 89 3a 33 a1 24 3b f5 ea 44 bc
       -0.00789831 0.0010466658 0.0025120496 -0.012018909
000320 2e 3a 6a bb 55 7d 01 3c b0 f0 41 3c 30 b1 ed 3b
       -0.0035740244 0.007903417 0.0118371695 0.0072537884
000330 6b 65 91 3b 34 59 45 3c 6f 4b db 3b 67 8f 9c bc
       0.004437139 0.012045193 0.006692342 -0.019111348
000340 10 40 8f bc a3 47 cb 3b 5d 29 c3 bc 5b 0b 69 bc
       -0.017486602 0.006203608 -0.023823434 -0.014223899
000350 d1 b5 9a bc 31 ab 22 bb 64 80 40 bc 68 47 2e bc
       -0.018885525 -0.0024821276 -0.011749361 -0.010637142
000360 b6 a4 79 3c 5b c6 3c bc 99 5e c9 bb 6d e8 79 bc
       0.015237024 -0.011521901 -0.00614531 -0.0152531685
000370 00 83 71 ba e6 31 80 3c dc a3 30 bc dd 7d 95 3a
       -0.0009212941 0.015648793 -0.010781255 0.0011405308
000380 74 b0 8c bc c1 cd 8f 3a 98 15 9f 3b e1 fa 0d bb
       -0.017173983 0.0010971354 0.004854869 -0.0021664428
000390 48 93 d6 3b 1e 00 40 3c f2 a0 99 ba d3 09 3e 3b
       0.006548319 0.011718778 -0.0011720939 0.0028997555
0003a0 a9 83 8d 3c a6 6d c8 3b 38 2f 42 3c fc 3c 96 bc
       0.017274695 0.0061165867 0.011852078 -0.018339626
0003b0 b1 e0 41 bc ac 6f ed 3b 10 21 6a ba 2a 44 3a bc
       -0.011833356 0.0072459783 -0.00089313183 -0.011368791
0003c0 ca 7f a0 bb 82 e7 0c bc 78 b5 85 ba 4b 8f fd 3a
       -0.004898046 -0.008600118 -0.0010201177 0.0019345073
0003d0 de 0c 68 3b 2a d4 61 3c 6b 26 3b bc 93 ad dd bc
       0.003540806 0.013783494 -0.011422734 -0.027060306
0003e0 ec c0 48 3c a9 d5 87 bc eb 3a b3 3c d8 38 d1 bb
       0.012253027 -0.016581373 0.02187868 -0.00638495
0003f0 ea d4 1c 3c f5 27 3b bc 95 a0 ad 3a f0 10 73 bc
       0.009572247 -0.011423101 0.001324671 -0.014835581

lstm.weight_ih_l0 f4 [512, 64]
000000 fe a3 e2 be ac de 80 3e e3 cd 62 3b ee 43 9d 3d
       -0.4426574 0.25169885 0.0034607581 0.07678972
000010 83 ba 8e bd bd d6 ee 3d df 84 31 3e 30 04 e7 3d
       -0.06969168 0.11662052 0.17335843 0.112800956
000020 12 67 bf 3d 17 ab 17 bc 61 ce ff 3d 7c 98 aa bd
       0.09345831 -0.0092571 0.124905355 -0.08329865
000030 3f 66 86 be 16 10 0e 3e 79 6e fb 3d 4d 26 87 3e
       -0.26249883 0.13873324 0.1227693 0.2639641
000040 d3 58 8d 3e 93 bc e8 3d b3 71 94 be 55 2e b7 3d
       0.2760683 0.11364093 -0.28992996 0.08944384
000050 db 9b 3d be 69 44 e4 bd 6d 17 e7 3c 1c 7a be be
       -0.18516485 -0.11145861 0.028209412 -0.37202537
000060 98 99 1e 3e e8 84 ec 3d 79 c0 1d be 7e 59 32 3c
       0.15488279 0.11548787 -0.15405454 0.010885594
000070 79 c9 9e be df 28 3d bd eb 24 e4 bd ad 45 96 3c
       -0.31013086 -0.046181556 -0.11139854 0.01834377
000080 ca 51 4c 3d 2f 66 8c be 33 18 27 bd 9a b5 16 bc
       0.049882688 -0.2742171 -0.040794563 -0.009198571
000090 7a ee af 3b 71 b4 42 3d 06 21 92 3d c6 f3 2d 3e
       0.005369005 0.047535364 0.07135205 0.16987523
0000a0 77 3b e1 bd cf d6 aa bd d2 ae 2c 3e 02 bf 9a 3c
       -0.1099767 -0.08341753 0.16863564 0.018889908
0000b0 e9 d2 4a 3e b1 d9 15 3e 70 43 bc 3b a0 17 dc 3d
       0.19807018 0.14633824 0.005745344 0.107466936
0000c0 8c 36 64 3e d1 c4 37 be e2 b6 74 3e 2c 07 a2 3d
       0.22286433 -0.17946173 0.2389789 0.07911524
0000d0 42 7b d9 3d 7c 75 95 be b7 39 88 bd 26 a4 0f be
       0.10619213 -0.29191196 -0.06651633 -0.14027461
0000e0 e9 44 f8 3d a9 15 1e 3e 22 c9 f9 3e b0 86 20 3e
       0.121225186 0.1543795 0.48786265 0.15676379
0000f0 f1 2e f1 3d 6c 6a 5b bb 4c 6d 3d 3d c4 5d e7 bc
       0.117765315 -0.003348018 0.04624681 -0.028242953
000100 63 32 be 3d 41 ce 88 ba b0 35 85 be 43 35 08 bd
       0.09286954 -0.0010437445 -0.26017523 -0.03325392
000110 c0 6f 21 be 87 b7 35 3c b0 4d f7 3e 2f 4b 62 3d
       -0.15765285 0.01109112 0.48301458 0.055247482
000120 0e 41 f6 bc 41 2b c0 3d e9 53 35 3e f3 6b e0 3d
       -0.030060317 0.0938325 0.1770779 0.1095809
000130 67 56 e4 3d f8 f5 84 bd 91 59 c3 bd e5 d6 95 be
       0.111492924 -0.06492227 -0.09538568 -0.29265514
000140 0e 49 df 3d 9d 7d 16 be 71 7a 87 bd 1c 92 f1 3d
       0.10902606 -0.14696355 -0.06615151 0.11795446
000150 d2 51 f2 bc 76 99 80 bb e1 b9 29 3d ab ba 3c 3e
       -0.02958003 -0.003924544 0.041437034 0.18430583
000160 b0 6c ed 3c 2c 3e 85 3e 0b 6c 1a 3e 11 fb 91 3d
       0.02898249 0.26023996 0.15080278 0.07127965
000170 89 fa a9 3e 63 15 f4 bc 62 10 01 3e 53 5b 7f 3e
       0.33198956 -0.029795354 0.12603906 0.24937181
000180 2d 15 67 3d f2 0a 83 be 9e b5 85 be 5e 7f 02 3e
       0.05641668 -0.25594288 -0.26115125 0.12743899
000190 ee 92 27 bd 8d ec 6e 3e 11 e4 8a 3d f2 18 08 3e
       -0.040911607 0.23332424 0.067817815 0.13290766
0001a0 44 d0 56 be fd 59 fd bd 9f 02 f6 3d d7 f4 f5 bd
       -0.20977885 -0.123706795 0.12012219 -0.1200959
0001b0 34 ed ad be 07 1a a6 bd 90 d1 2d 3e bf d0 9d be
       -0.33970034 -0.08110433 0.16974473 -0.30823323
0001c0 2b e4 ee be eb d3 8a 3d c3 71 03 be b9 8b fb 3d
       -0.46658453 0.067787014 -0.12836365 0.12282509
0001d0 f1 b0 01 bd 87 f8 cf 3d 0e 59 c4 3c 96 ee 7b bd
       -0.031662885 0.10154825 0.023968246 -0.06150683
0001e0 ac bd 6d bd 42 9e b3 3e 9e ea 02 be 1a 3a 01 bd
       -0.058042213 0.3508168 -0.12784812 -0.03154955
0001f0 f1 3d c7 3c 50 29 4c 3d 68 36 cb 3d c9 e7 91 be
       0.024321528 0.049844086 0.099224865 -0.2849715
000200 19 2b 0b be 69 e3 54 3e 31 37 47 3e 7b 0b 90 be
       -0.13590659 0.20789875 0.19454648 -0.2813376
000210 8e 58 bc 3b 14 3b 61 be 2e a9 2d be 5d dc 17 3e
       0.005747861 -0.21995193 -0.16959068 0.14830156
000220 34 23 34 be 62 73 62 be 41 54 f7 bd b9 09 10 bf
       -0.17591554 -0.22114328 -0.12076617 -0.56264836
000230 2d 76 92 bd 54 a8 bf 3d f5 e5 7c bd 42 1d c2 be
       -0.071514465 0.09358278 -0.06174274 -0.37912947
000240 b2 5e 73 3d 31 76 1d be a0 cc 1a be e9 d1 8e be
       0.05941648 -0.15377118 -0.1511712 -0.27894524
000250 85 12 23 3e 12 e7 34 3d 58 a1 11 3d 2a 18 fe 3d
       0.15925033 0.04416568 0.03555426 0.12406953
000260 3c 46 14 3e 1c 13 03 3f 9e 29 d7 be cb bc 59 be
       0.14479917 0.51201034 -0.4202394 -0.21263425
000270 4c b6 b8 be 05 ce 49 3e 60 68 0d 3e 67 65 3f be
       -0.3607658 0.19707496 0.13809347 -0.18691026
000280 f9 24 a2 bd 97 78 86 3e 97 3f 74 3f c1 aa 51 be
       -0.07917208 0.26263878 0.9540953 -0.20475294
000290 50 59 bc be 37 58 d8 bb e6 99 e9 3d be e2 bd 3d
       -0.3678689 -0.006602313 0.11406307 0.09271763
0002a0 ba fc 9d 3e 3b be a6 bd b5 ae 06 be 9b ca 56 3e
       0.30856878 -0.08141752 -0.13152583 0.20975725
0002b0 1b 88 d9 3e b4 6a a6 be a4 79 20 bf a1 83 0b 3f
       0.42486653 -0.32503283 -0.6268561 0.54497725
0002c0 b6 cb f9 3e ae 07 76 3e 2e ed 7a 3e 91 ed 29 bd
       0.48788232 0.24026367 0.2450454 -0.041486327
0002d0 6c a3 a8 be 65 af ae be 34 84 be 3e 5f b4 c6 bd
       -0.3293718 -0.3411819 0.37210238 -0.09702372
0002e0 d7 f7 bc 3e 0c 52 cb 3d d2 a0 a4 3c 49 89 69 3e
       0.36907837 0.099277586 0.020096216 0.22806276
0002f0 30 47 d5 3d 83 05 99 be 29 9b ff 3d e3 ae 05 3e
       0.104139686 -0.29887018 0.12480766 0.13054995
000300 cb f1 05 bd 5c 28 ad bd 6b f8 24 3d ac 5a 14 3e
       -0.032701295 -0.084549636 0.040275972 0.14487714
000310 fe 75 b7 3c ce 82 df 3d 80 5a 6f 3d 4b a1 a7 3d
       0.02239513 0.10913621 0.058435917 0.08185061
000320 11 10 39 3e 9a 86 4d be 64 3d 18 3e 9d 7a 84 3d
       0.18072535 -0.20070878 0.14867169 0.06468699
000330 f6 c1 5c bd c8 ef ca 3d be c2 c5 3b e5 0b c0 3d
       -0.053895913 0.09909016 0.006035178 0.09377269
000340 44 ae c0 3d 46 52 cf 3e f5 63 e6 3d 06 76 19 be
       0.094082385 0.40492457 0.11249534 -0.14986429
000350 d3 5a 60 be 40 a5 c8 3c 6c 5e 7f bd 08 77 2c bd
       -0.21909647 0.02449286 -0.062345907 -0.042105705
000360 2d 37 b8 be 3b 66 c1 bd 3c ad 93 bd ed 89 d1 3d
       -0.35979596 -0.09443327 -0.07210776 0.102313854
000370 b2 e8 5d be 8d 00 33 bb 2a 09 3d bd 05 9d 4e 3e
       -0.21670797 -0.002731356 -0.046151318 0.20177086
000380 9d b8 21 bc ec 09 fc ba 09 5d 9a bd 68 55 ac bd
       -0.009870675 -0.0019229031 -0.07537276 -0.084147274
000390 4d ab 19 3e 69 4f 76 3d a5 01 56 3d 39 86 ae 3d
       0.15006752 0.060134325 0.052247662 0.08521695
0003a0 4f 64 7c be fe 7e 14 3d dc 83 0c 3e 7b a1 a3 bd
       -0.2464764 0.03625392 0.13722175 -0.07989784
0003b0 eb ce fb 3d cf 7c 9e ba c3 b0 ff 3c 8a ce 27 3e
       0.12295326 -0.0012091639 0.031212216 0.16387382
0003c0 fc 8e 95 bd 52 f2 bb be f0 77 3f be 46 b8 de 3d
       -0.07302663 -0.36708313 -0.18698096 0.10874991
0003d0 1d e5 b7 3b a9 97 46 be 04 d4 d9 bc 7d 5d ac 3d
       0.005612029 -0.19393791 -0.026590355 0.08416269
0003e0 d3 b3 c7 3d 4f 86 c4 bd e5 cf c7 bd 9f 43 82 3e
       0.097510956 -0.0959593 -0.097564496 0.25442216
0003f0 66 28 18 3d 33 41 28 bd 1c 33 03 3e 3d 02 20 be
       0.037147902 -0.041077804 0.12812465 -0.15625854

lstm.weight_hh_l0 f4 [512, 128]
000000 aa 56 59 3e 43 36 91 bd 5a 24 f6 3d 20 f7 d2 3e
       0.21224466 -0.07090428 0.12018652 0.41204166
000010 bd 3d 53 be 80 0e ed 3a 18 e6 87 be 3c 7c c4 3d
       -0.2062902 0.0018085986 -0.26542735 0.09594008
000020 69 c5 27 3c 7b 56 fa be 87 2b 0b 3e 0d 86 ef 3d
       0.010239937 -0.48894104 0.13590823 0.1169549
000030 2c a0 26 3f c9 44 84 3d 09 60 bf 3e 4b 62 3b be
       0.6508815 0.06458432 0.37377957 -0.18299215
000040 6d 15 8b 3d bb 6d b5 be 77 25 26 bc e2 47 f5 3e
       0.06791196 -0.3543528 -0.010140768 0.47906405
000050 ac 8f 41 3f 9b ee ab be 48 f9 02 3e 17 75 fa 3e
       0.7560985 -0.3358048 0.12790406 0.48917457
000060 c9 3f a0 3e b8 f6 6b 3e a3 c1 2c be aa 58 b0 3e
       0.31298664 0.23043334 -0.16870742 0.34442645
000070 1a 12 ab bc 63 87 d5 bd 95 f5 36 3f 16 9c 56 3f
       -0.020882655 -0.104262136 0.7146848 0.8383192
000080 5b dd b0 be 39 e1 e6 3c 8c de 65 3d 7a 83 e7 3e
       -0.3454388 0.028183566 0.05612044 0.45217496
000090 e5 a2 46 be 9d 37 84 3e 58 13 a7 bd 10 ea 34 3e
       -0.19398077 0.2582368 -0.081579864 0.17667413
0000a0 dd 0f 0d 3e dd ca fb 3e 7a 8c 8c 3b d8 ea 9b bc
       0.13775583 0.4917821 0.004289207 -0.01903288
0000b0 ac 24 f4 3e 88 94 06 3f 33 57 a3 3e 1b 17 34 3e
       0.47684228 0.5257039 0.31902465 0.17586939
0000c0 5e a0 0e bd 06 13 15 3b d0 1e b0 3c 43 11 64 3e
       -0.034820907 0.0022746935 0.021499068 0.2227221
0000d0 c9 a1 f8 3c a5 b7 a6 bd 0a e8 1c bd 49 4a 28 bf
       0.030350583 -0.08140496 -0.038307227 -0.6573835
0000e0 d2 5d e1 3d 79 66 fc bc 86 bf 85 be 30 05 ab 3e
       0.11004223 -0.030810582 -0.26122683 0.33402395
0000f0 b6 79 02 bf d9 c9 18 bf 92 29 e3 3e 07 3c 69 be
       -0.50966966 -0.59682995 0.44367653 -0.22776805
000100 6e 4c 15 bd b4 aa 8a bd ee 11 ae be 51 33 a6 bd
       -0.036449842 -0.0677084 -0.33998054 -0.081152566
000110 80 e4 eb bd 47 08 af bd eb 9d 09 3e b4 c7 23 bd
       -0.11518192 -0.08546501 0.13439147 -0.039985374
000120 11 ef c3 3e 9b 49 ee 3c dc 42 80 be 0d f0 df be
       0.3826833 0.029087832 -0.2505101 -0.43737832
000130 6a 01 25 bd c4 16 93 be 59 2a 65 3e d0 39 85 3e
       -0.04028455 -0.28728306 0.22379436 0.2602067
000140 65 69 a0 be 23 72 03 3e 9f 6f b7 3e 04 df a9 bd
       -0.3133041 0.12836508 0.35827348 -0.0829449
000150 93 fe 68 3d a8 b4 88 3d ca 88 4d be 0a ad 19 be
       0.056883406 0.066750824 -0.20071712 -0.15007415
000160 b2 60 88 be da 6b df 3d 1d 86 ee bd 9f 7e 03 3e
       -0.26636273 0.10909243 -0.11646674 0.12841271
000170 5c 0f ba bd 16 54 7b bd 47 32 83 3e b1 7c ad be
       -0.09084961 -0.061359487 0.25624296 -0.33884194
000180 ed ef a7 3e fc 93 a8 bd 5b d3 58 be 42 7a 85 be
       0.32800236 -0.08231351 -0.21174376 -0.26069838
000190 59 9b 05 3e 72 97 54 3e af d4 c4 be c4 a8 96 bc
       0.13047542 0.20760897 -0.38443515 -0.01839102
0001a0 84 4b 14 bb 9f 11 5b be 57 a3 01 bd bc bd 07 3e
       -0.0022628019 -0.2139344 -0.031649914 0.13255972
0001b0 5e 1c 80 3e 57 15 90 be d2 70 0a bf 5d 0c 56 be
       0.25021642 -0.2814128 -0.540784 -0.20903154
0001c0 35 35 7a 3e 49 4f 20 be 9e 38 ed 3d 95 7e 87 be
       0.2443436 -0.15655245 0.115830645 -0.26463762
0001d0 7b e2 98 3d af d3 de 3d 47 16 dc be 17 f2 90 bd
       0.07465073 0.10880219 -0.42985746 -0.07077425
0001e0 f5 b9 af 3c 35 63 8e be 08 5c ec 3e 95 be 54 3e
       0.021450976 -0.27810064 0.46163964 0.20775826
0001f0 9e 12 e0 bd ab cf 0c 3e 99 5b 12 3f 52 5b f9 3e
       -0.10941051 0.13751094 0.57171017 0.48702484
000200 fc 3b 56 3d 34 4c 3d be 48 ed c2 bc 1b 06 a1 3e
       0.0523033 -0.184861 -0.023794785 0.3144997
000210 f5 dc 1d 3c 61 43 41 be a6 ff 20 bf 04 f7 ee 3e
       0.0096352 -0.1887336 -0.6289009 0.46672833
000220 39 af 36 3d 93 c4 93 be 98 52 ee 3e f5 04 d2 bd
       0.0446007 -0.28860912 0.4654739 -0.10254852
000230 0a 22 b6 3d 7c 72 05 3f 63 e3 cf bd c4 6d c3 be
       0.08893211 0.52127814 -0.101507924 -0.38169682
000240 ec 38 3f 3e d7 e4 71 3e ad 31 a7 be 77 81 92 bd
       0.18674058 0.23622452 -0.32655087 -0.071536
000250 d4 bd dc bd 64 33 29 bd f5 48 28 bf 87 ab c3 bd
       -0.10778394 -0.041308776 -0.65736324 -0.095542006
000260 4e 3e 89 be 20 10 a7 3e 4e 38 43 bd 2a f2 10 be
       -0.26805347 0.3262949 -0.04766112 -0.14154878
000270 fd 4f 51 bc 66 82 a4 3e b6 9a 3d 3e 6a 52 f5 3d
       -0.012775418 0.32130736 0.18516049 0.1197861
000280 f7 47 c2 bd 24 21 64 bc 5e 5d 27 bf b6 6a 7e 3d
       -0.094863825 -0.013923917 -0.6537684 0.062113486
000290 a2 9e 9a 3e 98 29 b1 3c c3 67 21 be 7c 0b 48 3e
       0.30199152 0.021626279 -0.15762238 0.19535631
0002a0 fd 13 0d 3e c2 89 8c be 95 3a 40 bd b1 c6 83 bd
       0.13777156 -0.2744885 -0.04693087 -0.06434382
0002b0 fc c9 94 be 65 09 9c bd f3 74 a8 bd 69 c7 b0 3d
       -0.29060352 -0.07618979 -0.08225431 0.086317845
0002c0 30 d5 61 bc 0c 41 13 3e 7a 05 96 be f3 a1 a0 3e
       -0.013783738 0.14380282 -0.29301053 0.31373557
0002d0 e9 e6 05 3f 7b 2a 30 3e c6 82 32 be a9 82 d0 3c
       0.52305466 0.17203705 -0.17432699 0.025452929
0002e0 ff c0 9d 3e 99 33 ef 3d 4b e9 9e 3e c5 78 2a be
       0.30811307 0.11679763 0.31037363 -0.16647632
0002f0 14 e0 a2 3e e5 11 3f be c8 ad be bd d6 82 8e 3e
       0.31811583 -0.1865917 -0.0931049 0.27834195
000300 55 92 25 3e 9c e7 33 3e 22 a3 33 3d 76 37 b5 be
       0.16169102 0.1756882 0.043856747 -0.35393876
000310 ea 39 20 bd 25 d9 cd bc 26 fc 20 3d 78 17 a4 bd
       -0.03911773 -0.025127957 0.039302967 -0.08012289
000320 60 df 8a be b3 cc d1 3e be a9 a0 3e 72 6e 0b be
       -0.27123547 0.40976486 0.31379503 -0.1361635
000330 24 6f da 3e 73 61 1f bc 94 44 4e 3e b5 cb db bc
       0.4266292 -0.009727824 0.20143348 -0.026830534
000340 f6 a7 a8 bd d7 0a a4 bb 9c f0 24 bd c7 fc bf bd
       -0.08235161 -0.005006175 -0.040268525 -0.09374385
000350 d9 5d fa 3e 5a 15 6a 3e d7 48 94 3e b8 e0 2f 3e
       0.48899725 0.22859707 0.28961822 0.17175567
000360 17 a9 dc bd ed 39 0b 3f 4c c7 f9 be e3 8f 55 3d
       -0.10774439 0.5438526 -0.48784864 0.052139174
000370 6d 96 da 3e 49 e0 5c 3e 7d eb d1 3e 59 1c d2 bd
       0.4269289 0.21569933 0.40999976 -0.10259313
000380 b5 25 0f be ea 3d a3 be d2 ae 90 bb fb bb 77 be
       -0.13979228 -0.31883174 -0.0044153715 -0.24192803
000390 69 81 4c 3c b6 1b b7 bd be ea 00 be 92 4c 79 be
       0.012482026 -0.08940832 -0.12589547 -0.24345616
0003a0 96 43 8c be 30 71 ac be 7a 5d f6 be da 1c bd 3e
       -0.27395314 -0.33680105 -0.48118192 0.36936074
0003b0 97 ec 4a 3e 46 10 5c be 0f a9 f6 bd e8 ad bb be
       0.19816814 -0.21490583 -0.12043964 -0.36656117
0003c0 bd 58 cd bc 50 0e 2c 3e cf 24 e6 3c f6 a2 c9 3d
       -0.025066728 0.16802335 0.028093724 0.098455355
0003d0 5c 34 48 be f4 82 aa 3e 42 c9 54 3d f0 b6 9e bd
       -0.19551224 0.33303034 0.051949747 -0.07749736
0003e0 b6 9c f3 3d 4c c1 11 bf a0 e6 28 3e 6d 2e 0f 3e
       0.118951246 -0.5693557 0.16494226 0.13982554
0003f0 95 9d 19 3e 39 c4 19 3f 5c 53 0f be 4e 25 80 3e
       0.15001519 0.60065037 -0.13996643 0.2502846

lstm.bias_ih_l0 f4 [512]
000000 59 e6 22 3d ef ee 57 bc 9e 2a 96 3e 0d b0 95 be
       0.039770458 -0.013179525 0.2932939 -0.2923588
000010 3e 6b a2 3e 45 96 96 3e 1b 54 2c 3e 44 2b b7 3c
       0.31722444 0.29411522 0.16828959 0.022359498
000020 6a 38 ce 3b f0 b0 14 3e 7c 00 d7 bd 5f 32 87 3e
       0.006293346 0.14520621 -0.10498139 0.26405618
000030 79 a4 e2 3d 98 db b1 3d c5 bc 21 3e 2b fd de bd
       0.11066527 0.08684462 0.15794666 -0.10888132
000040 ef 9c 57 3e 83 ee 44 bd 1b 64 d6 bd 24 02 06 3e
       0.21055959 -0.048079025 -0.10468312 0.13086754
000050 11 e9 e9 bc 52 8a 37 3e e2 17 71 3e 51 25 54 3e
       -0.028553518 0.17923859 0.23544267 0.2071736
000060 9e f7 48 3d 40 d4 6e 3d 6e 6c 7d 3e 9b 76 ce be
       0.04906427 0.058307886 0.24748394 -0.40324864
000070 3a f3 2c bd 0b ee ff bc 57 9b 7d 3e 92 11 05 3e
       -0.042224146 -0.031241437 0.24766289 0.12994984
000080 3c 70 a4 3a f5 38 d0 3e 40 74 a9 be a9 28 8a 3d
       0.0012545655 0.40668455 -0.33096504 0.067460366
000090 59 9c 39 be 6e 06 87 3e 54 96 4b be a6 61 af 3d
       -0.18126048 0.26372093 -0.19881564 0.08563547
0000a0 55 e8 1e 3e a3 8d 44 3d c2 7a d6 bd 53 86 e4 3e
       0.15518315 0.047986638 -0.10472633 0.4463373
0000b0 7b 68 b4 3e 9a 02 8d 3e 62 b8 7f bc 32 4e 48 3d
       0.35235962 0.27541047 -0.015607925 0.048902698
0000c0 1a 1f 51 bd 47 08 9f bc 2e a0 4d 3e fb 77 47 3e
       -0.05105505 -0.019413127 0.20080635 0.19479363
0000d0 64 a7 b8 be 3c b9 8e 3e 65 0f 1e 3e aa c2 d8 3d
       -0.3606521 0.27875698 0.1543556 0.10584004
0000e0 a7 d1 18 3d f1 c5 91 be 17 93 32 3e d6 d1 3e 3e
       0.037309315 -0.2847133 0.17438923 0.18634734
0000f0 4d 36 0f 3f eb ed 38 3e 9c 2d 92 3e 34 ae e8 3c
       0.5594223 0.18059509 0.28550422 0.028403379
000100 73 3b 6a bd 4f 3d b6 3d 4f cb 1e 3d e0 90 c1 bd
       -0.0571856 0.088984124 0.03876811 -0.09451461
000110 64 84 15 3e 15 65 d6 3d 80 94 6b 3e 74 44 35 3e
       0.14601284 0.104684986 0.23005867 0.17701894
000120 58 0b 12 3e a6 f1 02 3e 83 b0 4e bd 58 b6 0b 3e
       0.1426214 0.12787494 -0.050461303 0.13643777
000130 ae 0b 24 3e ab 6d 7a 3d 0f 0d 9f 3d 1e 3a 57 be
       0.1602008 0.061139744 0.077661626 -0.21018264
000140 27 33 7f 3e 9b 01 26 3d 16 16 bd bb 7a 3a ac 3e
       0.24921857 0.040528875 -0.005770455 0.33638364
000150 2b 8f b7 3e 7b d3 15 3e 11 64 bd 3d ae 95 c1 3d
       0.35851416 0.14631455 0.09247602 0.09452377
000160 a3 ab f7 3c a9 56 47 3e 56 fd 00 bf 11 3d 52 3e
       0.03023321 0.19466652 -0.5038656 0.20531107
000170 d0 55 66 be 9d 6e cd bc 5e 6f 22 3e ac df a0 3e
       -0.22493672 -0.025077159 0.15862796 0.31420648
000180 ba 97 6d 3e 31 d3 56 3e 25 42 35 3c a6 97 ef 3d
       0.2320241 0.20979 0.011063133 0.116988465
000190 f6 5d c6 3d f0 f7 da bd 70 d1 5e 3e 8b 2c 35 3e
       0.096858904 -0.106918216 0.21759582 0.17692773
0001a0 bc 21 18 be c3 14 f9 bc 89 70 3d bd 5b aa 33 3d
       -0.14856619 -0.030405408 -0.0462499 0.043863636
0001b0 1e 68 12 3e 44 87 93 bd 60 40 ae 3d f1 6f 8b 3d
       0.1429753 -0.07203534 0.08508372 0.068084605
0001c0 bd e2 42 3e 84 fd 31 3e 38 7a 77 3d 49 94 95 bd
       0.19031806 0.17381865 0.06041929 -0.07303674
0001d0 b0 f0 a4 3d 15 fe b7 3e ac 5e fd 3e 14 9e 9d 3d
       0.0805372 0.35936037 0.4948629 0.07696167
0001e0 43 9f 8f 3e b4 68 4b 3e a5 52 8f 3e 49 76 2c 3e
       0.28051195 0.1986416 0.2799274 0.16841997
0001f0 c3 ee 16 3e 91 fe 1e 3b c9 ca b1 3e 8c a0 37 3e
       0.14739518 0.002426062 0.34725025 0.17932338
000200 ec fb 0d 3e be 13 85 3e 0d 3d 60 3d 6e 30 46 3f
       0.13865632 0.25991625 0.054745723 0.7741765
000210 a4 74 98 3d 74 dd 8c 3e fb 3a 48 3e ac de cd 3d
       0.074441224 0.27512705 0.1955375 0.10052237
000220 28 e4 e3 3d 2c 50 01 3e 6c d3 5c 3e 35 c0 04 be
       0.11127502 0.1262824 0.21565026 -0.12963946
000230 88 85 fe 3d 74 5c bb 3e 11 d1 97 3d 45 3d be 3e
       0.12427813 0.36593974 0.07412923 0.3715612
000240 50 ec 1f 3e b5 b6 0e 3e e8 00 99 3e e1 fc 71 3e
       0.1561749 0.13936885 0.29883504 0.23631622
000250 8a 0e 17 3f 55 d2 f4 3d b5 ae a8 bd e0 3f 83 3c
       0.5900656 0.1195418 -0.08236448 0.016021669
000260 ef 81 72 3e 44 18 69 3d 6e f3 79 ba a3 53 46 3f
       0.23682378 0.056907907 -0.000953487 0.7747137
000270 9e 7f 9d 3e 80 41 e3 3d ff 71 63 bd 4c c5 6a 3e
       0.30761427 0.110964775 -0.055528637 0.22926825
000280 b3 f8 08 3e 01 b8 0e bd 11 43 3b 3f 00 0d 83 3e
       0.13376121 -0.03484345 0.7314921 0.25595856
000290 72 0b 4b 3e 3e b4 e1 3c 68 59 db 3e f2 fa e6 3e
       0.19828585 0.027551766 0.4284165 0.4511333
0002a0 f3 9d fc 3d ec 70 07 be 19 6b c7 3e 84 57 d0 bd
       0.12334814 -0.1322667 0.38948897 -0.10172942
0002b0 92 82 0c bd e8 61 bc 3c 62 20 6f 3e dd 4a e1 3e
       -0.03430421 0.022995904 0.23352197 0.4400243
0002c0 66 ca b5 3e 56 04 9b 3d ce 73 4d 3e 5a 62 3a 3e
       0.3550598 0.075691864 0.20063707 0.1820158
0002d0 60 8e 1c 3f 75 81 55 3e af f4 4f 3e d4 a6 89 3e
       0.61154747 0.20850165 0.20308183 0.26885092
0002e0 cb 6b a9 3e b1 93 23 3f 26 f5 80 3e 07 1d 0b 3e
       0.33090052 0.63897234 0.25187033 0.13585292
0002f0 12 d0 5e be c5 ea 29 3e c9 38 58 3e f5 14 bc 3e
       -0.2175906 0.16593464 0.21115412 0.3673474
000300 b1 00 9b 3e 6d e5 91 3e 16 9a 99 3e a1 b1 9e 3e
       0.30273965 0.2849535 0.3000037 0.30994895
000310 bc 06 3f 3e 93 b8 30 3d a2 28 67 3d ec ae 62 3d
       0.18654913 0.043144774 0.056435235 0.0553426
000320 8f e0 21 3e 7c 52 48 be 75 30 a4 3e f7 7e d0 3d
       0.15808319 -0.19562715 0.3206822 0.101804666
000330 57 ad 4d bd 62 81 48 3e e7 3a ad 3e b7 3b ea 3e
       -0.050214138 0.19580606 0.33834 0.45748684
000340 09 bd ad be 6b cd 99 3e fc f2 1e 3e b3 8f ee bd
       -0.33933285 0.30039534 0.15522379 -0.11648502
000350 a0 16 1f bd 61 bb 6f 3d db dc 03 3e 39 fc 8f 3d
       -0.038839936 0.058528308 0.12877218 0.070305295
000360 3b be 76 3d f0 11 88 bc 96 11 40 3f a1 12 f1 3d
       0.06024001 -0.016610116 0.75026834 0.11771131
000370 2c dd c2 3e c9 12 ae 3e 16 e1 b2 3d d0 90 29 3d
       0.38059366 0.33998707 0.08734338 0.04139787
000380 f0 79 fb 3d f0 33 80 3e 7a 39 6d 3d be 12 63 bc
       0.12279117 0.25039625 0.057916142 -0.013859449
000390 91 a2 a2 3e 42 5e b1 3e 7f 89 0e 3e 30 1a cf bd
       0.31764653 0.34642226 0.13919638 -0.10112417
0003a0 8e dc f6 3e c8 86 b3 3e d8 7c fa 3d 0e 0b a1 3d
       0.48215145 0.35063767 0.12230843 0.07863437
0003b0 4b 5f 9d bd 4c e0 6e 3d 14 58 2e 3d 8d 05 5e 3e
       -0.07684191 0.058319375 0.042564467 0.21681805
0003c0 67 4a c1 3d 16 28 95 3d 10 86 8e 3c e3 a0 a5 3e
       0.09438019 0.072830364 0.01739791 0.3234931
0003d0 d4 06 34 bd 19 0c 2f bc a4 b4 5f 3e 38 49 e3 3e
       -0.043951824 -0.010684037 0.21846253 0.443918
0003e0 91 9e 30 3e 01 af f0 3d e1 06 cf 3b 05 49 04 3e
       0.17247988 0.11752129 0.0063179587 0.1291848
0003f0 f3 6e 70 3e 29 63 a8 3e 2a a9 82 ba 52 c1 8f 3e
       0.23479824 0.32888153 -0.0009968628 0.2807718

lstm.bias_hh_l0 f4 [512]
000000 81 20 6e 3d 5e 44 75 bc 60 7d 77 3e 70 44 aa be
       0.058136467 -0.014969913 0.2416892 -0.3325534
000010 a4 3a 6f 3e 6a 1e ab 3e 34 6a f2 3d 16 92 c8 3b
       0.23362213 0.33421642 0.11836663 0.0061209304
000020 2b 3c f0 bc df e4 61 3d 44 8b 77 bd a0 9b 94 3e
       -0.029325565 0.05514991 -0.06043555 0.29024982
000030 ec 2e 04 3e 2e 33 a3 3d 7a ef 12 3e 5c c8 5c bd
       0.12908524 0.07968746 0.14349166 -0.053902015
000040 b4 9a e6 3d 51 1a b0 3c 2b 17 41 bd 18 be d1 3d
       0.11259976 0.021496924 -0.047141235 0.10241336
000050 34 f9 34 bd fa b3 f5 3d ac 82 80 3e f8 cd 61 3e
       -0.04418297 0.119972184 0.25099695 0.22051227
000060 7f a6 d5 3d fe 51 4d 3d 69 6a 99 3e b9 56 d0 be
       0.10432147 0.050127022 0.29963997 -0.40691164
000070 c2 f9 ff bd 88 f5 10 bd 75 65 81 3e b3 96 c9 3d
       -0.124988094 -0.035390407 0.25272718 0.09843197
000080 f3 61 96 3d 2f 2b ac 3e c0 53 be be 23 d0 28 3d
       0.07342901 0.33626696 -0.3717327 0.04121412
000090 0f 85 13 be 7a 66 a2 3e 88 06 1f be 13 e3 6f 3d
       -0.14406227 0.31718808 -0.15529835 0.058566164
0000a0 1c 1b e7 3d 7a 76 8e 3d 14 79 ba bd 4e 61 b7 3e
       0.112844676 0.06956191 -0.09105125 0.35816425
0000b0 20 89 b5 3e be 35 a5 3e 04 28 cf bd e3 b5 7c 3d
       0.3545618 0.32267565 -0.10115054 0.0616969
0000c0 87 d8 c1 bd df 21 32 3d 53 f2 4c 3e 13 29 58 3e
       -0.094651274 0.043489333 0.20014314 0.21109419
0000d0 cb 15 9b be e8 d2 6a 3e e4 df 20 3e bc 50 1a 3e
       -0.30290064 0.22932017 0.15710407 0.1506986
0000e0 61 2d c3 3c c9 50 87 be 1f 63 64 3e 4f 91 8b 3e
       0.02382535 -0.26428822 0.22303437 0.272593
0000f0 da 55 16 3f b9 55 2c 3e 16 de 60 3e f0 14 88 bc
       0.5872475 0.16829576 0.21959719 -0.016611546
000100 a2 2d 40 bd 6f 96 1c 3e ac b8 ac bc 77 ec 7a bd
       -0.04691852 0.15291761 -0.021084152 -0.061260667
000110 12 50 2b 3e 24 40 de 3d ff 0e 51 3e 63 76 80 3e
       0.16729763 0.108520776 0.20415877 0.25090322
000120 dc 15 01 3e 0a 82 50 3e c3 54 7e bc 3a b6 3f 3e
       0.12605995 0.20362106 -0.015523138 0.18721858
000130 34 25 13 3e fa e2 32 3d df 3e 21 3e 24 b1 48 be
       0.1436966 0.043673493 0.1574664 -0.19598824
000140 c4 11 5d 3e 8c 4d ab 3d c2 f8 46 bd 59 26 bf 3e
       0.21588808 0.083644 -0.048577078 0.37333944
000150 eb 0c a9 3e 4c f9 01 3e 6a 11 0c 3e 24 bc 04 3e
       0.33017668 0.12692755 0.13678518 0.12962395
000160 62 c7 a4 3d 0f c1 4f 3e f8 ca 02 bf 06 c3 50 3e
       0.08045842 0.2028849 -0.51090956 0.20386896
000170 4f 56 9e be 4c e3 65 3c d1 d6 0c 3e 7f cb ad 3e
       -0.30925223 0.014031243 0.13753821 0.33944318
000180 72 48 8a 3e 68 0e 26 3e 28 34 6e 3d 08 a9 bb 3d
       0.27008396 0.16216433 0.05815521 0.091630995
000190 12 a9 ba 3d d0 79 f1 bd a8 51 7e 3e 87 84 5a 3e
       0.09114279 -0.11790812 0.24835837 0.21339618
0001a0 95 48 50 be 14 8c be 3c fa 3f 8a bd dd 1f 1a 3c
       -0.20340188 0.023260154 -0.06750484 0.009407011
0001b0 4d 6d fb 3d 12 f2 c5 bd 31 d6 2f bc ae c3 6e 3d
       0.12276707 -0.09665312 -0.01073222 0.058292083
0001c0 98 fc d2 3d f5 29 6b 3e a7 ec f5 3d d5 b1 bb bb
       0.10302085 0.22965224 0.120080285 -0.0057279863
0001d0 ab a1 54 3d fe 71 c6 3e 44 a0 df 3e a7 8f 2c 3e
       0.05191199 0.38758844 0.4367696 0.16851674
0001e0 4f 89 97 3e 43 3d 4e 3e 40 fe 7d 3e e3 f3 58 3e
       0.29596946 0.20140557 0.2480402 0.21186785
0001f0 31 d7 5a 3e 20 70 d8 bc 98 4f ae 3e e6 bc 1f 3e
       0.21371152 -0.026420653 0.340451 0.15599403
000200 2a 2a 19 3e 1c 3e 55 3e a5 6d 0e 3d 99 47 2e 3f
       0.1495749 0.20824474 0.034772534 0.68078
000210 e8 f3 eb 3d 7d 3a 60 3e 34 2c 21 3e e6 a7 2a 3e
       0.11521131 0.21897312 0.15739518 0.1666561
000220 a9 5a b1 3d 75 99 0b 3e c8 77 89 3e 20 d3 37 be
       0.0865987 0.13632758 0.26849198 -0.17951632
000230 12 cb 12 3e d2 73 be 3e ae 71 ba 3d ee 00 e4 3e
       0.14335278 0.3719774 0.09103714 0.4453196
000240 61 4c 34 3e b4 76 58 3e 59 64 af 3e f5 56 3a 3e
       0.17607261 0.21139032 0.34256247 0.18197234
000250 41 22 18 3f 99 b4 ff 3d e0 3e 7b bd 75 2c 04 3d
       0.5942727 0.12485618 -0.06133926 0.03226896
000260 7f 89 55 3e 6f e7 49 3c e5 f7 59 3d 3f 27 43 3f
       0.20853232 0.0123232445 0.053214926 0.7623176
000270 85 4b 84 3e 88 f1 c2 3d 3f ec 0a bd a6 86 73 3e
       0.25838867 0.09518725 -0.033916708 0.23781833
000280 1d b5 3c 3e a2 4e 08 bd ba 4d 3a 3f ee fa 57 3e
       0.18428464 -0.033278115 0.7277485 0.21091816
000290 d1 a3 56 3e d9 d4 ab 3d c2 84 e8 3e 26 53 c5 3e
       0.20960928 0.08390207 0.45413786 0.3854
0002a0 e2 6b 1a 3e 2d bd 95 bd bc cc aa 3e c1 02 35 be
       0.15080217 -0.07311473 0.33359325 -0.17676832
0002b0 84 8b 8a bc b2 2c 02 3d 3b c6 8b 3e ed bd bd 3e
       -0.01691223 0.031780906 0.27299675 0.37058964
0002c0 43 e5 b4 3e 7b 58 f4 3c ef 88 43 3e 90 62 38 3e
       0.35331163 0.029827347 0.19095205 0.18006349
0002d0 4d 25 1b 3f 82 de 24 3e 45 4f 77 3e 9c e4 60 3e
       0.6060379 0.16100505 0.24151333 0.21962208
0002e0 8f 0c b1 3e 74 ec 1b 3f 6e 08 4d 3e 86 a5 29 3e
       0.34579894 0.60907674 0.20022747 0.16567048
0002f0 a5 44 76 be 7d 9a 26 3e ce 2f 25 3e 98 19 b0 3e
       -0.24049623 0.1626987 0.16131517 0.34394526
000300 27 8c cb 3e f4 53 5d 3e 22 3d 92 3e 87 a1 a4 3e
       0.39755365 0.21614057 0.28562266 0.32154486
000310 1e b5 78 3e 87 1a a8 3d 51 80 fa 3d 74 80 45 3d
       0.2428784 0.08208185 0.12231506 0.048218206
000320 a1 5b 1b 3e fc 17 63 be d2 7f 88 3e 8a 35 b2 3d
       0.15171672 -0.22177118 0.2666002 0.08701618
000330 0d 4d 0a be 98 78 69 3e e3 25 9f 3e d6 03 f8 3e
       -0.13505955 0.22799909 0.31083593 0.48440427
000340 1d d4 93 be 90 68 8d 3e 4e 24 3b 3e 30 37 ee bd
       -0.28872767 0.27618837 0.18275568 -0.1163162
000350 c1 42 fa ba 27 dd 06 3d a2 d2 44 3e a4 93 10 3d
       -0.001909338 0.03292575 0.19220975 0.03529705
000360 31 6a b7 3d 47 6f 57 3d ed e2 50 3f 49 b4 39 3e
       0.08955801 0.052596357 0.8159626 0.1813518
000370 bc ad db 3e e9 37 86 3e d6 ee b4 3d a0 4c 29 3d
       0.42905986 0.2621453 0.08834617 0.04133284
000380 4c a4 b4 3d ad c7 88 3e 2e c5 21 bc f6 b8 e2 bc
       0.088204 0.2671484 -0.009873671 -0.027676087
000390 72 b5 a6 3e 78 75 99 3e d8 95 20 3e 02 03 00 bd
       0.32560307 0.29972434 0.15682161 -0.03125287
0003a0 41 fe 0a 3f db e6 ac 3e 7d 0f fc 3d f4 18 07 3d
       0.5429421 0.3376988 0.12307642 0.03298278
0003b0 a2 35 70 bd 8a 98 4b 3d 00 ee 93 3d 29 e3 29 3e
       -0.0586449 0.04970602 0.07223129 0.16590561
0003c0 9f e8 2a 3e 61 8a 90 3c aa 67 b6 3c df 15 a2 3e
       0.166903 0.01764411 0.022266228 0.3165731
0003d0 46 92 36 bd cc c1 52 3d d4 a4 9b 3e 92 b2 f5 3e
       -0.04457309 0.05145435 0.3039919 0.479878
0003e0 c0 47 1e 3e 11 0f a8 3d 84 79 c6 3d 06 d3 17 3e
       0.15457058 0.08205999 0.09691146 0.14826593
0003f0 b3 3f 8c 3e 37 5f a9 3e f4 bb b8 3c b6 92 71 3e
       0.2739235 0.33080456 0.02255056 0.23591122

lstm.weight_ih_l1 f4 [512, 128]
000000 cc c6 83 bd 7b 99 83 bc ae 5c 39 bc 6e e3 b7 3d
       -0.06434402 -0.016064396 -0.0113136 0.08978926
000010 7c 1b 72 bd 9f 88 99 be 98 e2 14 3e 57 bd f2 3d
       -0.059108242 -0.29987046 0.14539564 0.1185252
000020 c1 df e5 bd 41 7e 40 be e7 ec 31 3d 4c 9b 8b be
       -0.11224318 -0.18798162 0.04343882 -0.2726692
000030 bf f3 aa bd 8e c2 71 be b4 b4 50 3e 99 aa 91 bd
       -0.08347272 -0.23609373 0.20381433 -0.07112617
000040 fd 37 7c be 6b 44 12 ba d4 42 8e bd b9 5c 04 be
       -0.24630733 -0.0005579653 -0.0694634 -0.12925996
000050 76 e5 88 be fe d4 4c bd 25 1e f4 bd bf 8d 01 bc
       -0.26737565 -0.050007813 -0.11919812 -0.00790733
000060 7a e1 24 be c6 cf f9 bc 3a e5 04 be 12 77 80 3d
       -0.16101637 -0.030494582 -0.12978068 0.06272711
000070 66 65 94 3d 1c c7 95 bd 56 18 07 bc 95 9a 02 be
       0.07245903 -0.07313368 -0.008245548 -0.12754281
000080 0a 52 15 be 90 c6 08 3e 45 dc 31 bd 10 79 55 3d
       -0.14582077 0.13356996 -0.043422956 0.052117407
000090 fb de 21 3d 3a 2f a1 3d 6b ea 8f be a4 1c 69 bd
       0.03951929 0.07870336 -0.28108534 -0.05691208
0000a0 00 64 5a bd e6 97 36 3d 1f 69 89 be 6e 83 28 bd
       -0.053318024 0.044578455 -0.26838014 -0.041140966
0000b0 e4 2e 50 bc 2c 0d 40 3d 98 40 56 3c ac c5 31 3d
       -0.012706492 0.04688756 0.013076924 0.043401405
0000c0 eb b4 34 be 52 84 0e 3e ba 19 c3 be 8b 91 bb bd
       -0.1764714 0.13917664 -0.38105565 -0.091586195
0000d0 47 b8 01 bd e4 a5 57 bc f4 56 49 3e dd ed 25 bd
       -0.03166988 -0.01316211 0.19662076 -0.040510047
0000e0 9e d3 fb bd 53 c2 96 bd 4d bd 5b 3e 09 59 d8 bc
       -0.12296222 -0.07361283 0.21458931 -0.026409643
0000f0 7d ea df bd c8 88 14 be c3 38 b4 3d 54 62 e6 3d
       -0.10933397 -0.14505303 0.08799889 0.11249223
000100 df 1d f0 3e a7 f7 17 be 90 0f 03 3c fc 36 16 bd
       0.4689779 -0.14840566 0.007999316 -0.03667353
000110 fe 1b 8c bd 36 f7 d0 3d 09 0e 0c 3d be cb c4 be
       -0.068412766 0.10203402 0.034193072 -0.38436693
000120 10 da 0e be 99 ad b1 be 6a f5 22 3e 2b 9a 13 bd
       -0.13950372 -0.34702757 0.1591393 -0.036035698
000130 bf 6c cb bd fa 90 c9 bc 27 06 15 3d 47 4a 26 bc
       -0.09932851 -0.024605263 0.03638282 -0.010149545
000140 c7 b6 7a bd b9 88 70 3e dd 31 91 bd e8 e8 86 bd
       -0.061209466 0.23489656 -0.07089589 -0.06587392
000150 fe 11 6c be da bf 76 bc 03 9a 04 bd 33 7d 1f be
       -0.23053738 -0.015060389 -0.03237344 -0.15575103
000160 ba 43 f0 3d 42 b4 27 be 50 6d 08 3c fb 43 af 3b
       0.11731668 -0.16377357 0.008326843 0.00534868
000170 23 01 43 be 90 55 9b 3e 7e df 1c bd bf 30 83 bd
       -0.19043402 0.30338717 -0.038299076 -0.06405782
000180 34 66 17 be ab da 8d bd 37 fb b0 3d 88 fe b1 3c
       -0.14785081 -0.06926473 0.086416654 0.021727815
000190 a0 4c d9 3c 5c 4b 84 bd a2 04 9d 3e 0c ac 0c bd
       0.026525795 -0.06459686 0.30667597 -0.034343764
0001a0 67 94 c5 3b 95 37 9a be a9 37 22 be e2 c6 b8 bc
       0.006029654 -0.3012053 -0.15841545 -0.022555772
0001b0 3e b9 6c 3e 27 3f 32 3e 94 cd 0a bd 47 d6 8f 3e
       0.2311754 0.17406903 -0.03388746 0.28093168
0001c0 04 77 aa 3e af 60 88 3e 98 85 07 3d 82 b8 99 3d
       0.33293927 0.26636264 0.03308639 0.07505895
0001d0 dc c4 8e 3c 4b b0 9b bd 90 c2 95 3d 26 fb 3b 3e
       0.017427854 -0.076019846 0.073125005 0.18357524
0001e0 0c 3d 12 be 00 a3 d9 bd fe 71 39 3e 0b 36 ec 3d
       -0.142811 -0.10626793 0.18109891 0.115337454
0001f0 89 1c df 3d cf fe 50 be da c1 74 be 4e a9 60 3e
       0.108941145 -0.20409702 -0.23902074 0.21939585
000200 4f 9d 9e 3d 81 89 23 be a9 f0 9a bd b6 70 88 be
       0.07744848 -0.15970422 -0.075654335 -0.26648492
000210 e4 e2 98 3d b1 38 55 3e 16 8a 5c 3d 5a fd 68 3d
       0.07465151 0.20822407 0.053842627 0.05688224
000220 ea f4 03 3e 03 df 9e 3d 94 9b 99 3d ea fe 3c be
       0.12886396 0.0775738 0.07500377 -0.18456617
000230 1f 7d c4 bc 00 ee 10 3d fb 01 b6 be 52 25 14 3c
       -0.023985444 0.035383224 -0.35548386 0.009042101
000240 b4 cd 9f be b4 8d 01 bd 0d 9a 7e be e1 13 76 bd
       -0.31211627 -0.03162928 -0.24863453 -0.06007755
000250 e2 9b bd 3d 5f 3a 13 3e 57 c6 80 3d 5a 9b 57 3d
       0.09258248 0.14377736 0.0628783 0.05263839
000260 3c 41 7d 3e 8b 71 89 3d 8a ff 79 3d e5 a3 8b 3d
       0.24731916 0.0671111 0.061034717 0.0681837
000270 3f 84 da 3d cd 70 15 be 16 68 bc bd 70 d4 ac bd
       0.10669755 -0.14593811 -0.0919954 -0.08438957
000280 05 e0 a9 be 31 52 99 3e 95 67 c0 bc 21 58 9a bc
       -0.33178726 0.2994552 -0.023486892 -0.018840851
000290 c4 75 01 be 28 2a ea bc bb bc f8 bc 8c a4 26 be
       -0.1264258 -0.028584555 -0.030363431 -0.16273707
0002a0 70 eb aa 3b d8 98 96 be bd b2 c5 3c 9d d4 11 3e
       0.0052160546 -0.29413486 0.02413308 0.14241262
0002b0 87 c3 2a 3e 20 46 98 be 68 8f 45 3d 93 43 b1 3a
       0.1667615 -0.29741 0.048232466 0.0013524167
0002c0 e8 1b 42 be 3b cd 89 3e 9d 87 f5 bd c6 b9 3e 3e
       -0.18955958 0.2691439 -0.11988757 0.18625554
0002d0 1c 19 f1 bc f9 95 29 3e 9e a0 03 3e e8 3b 11 bd
       -0.029430918 0.16561116 0.1285424 -0.03545752
0002e0 1b a7 10 bd 02 9d c3 3c 63 bd e2 3d cb 04 a7 3e
       -0.035315614 0.023878578 0.11071279 0.32620844
0002f0 00 3e 22 3e 68 c3 03 3e 4e 3a 10 be 5e 6e a2 3b
       0.15843964 0.1286751 -0.14084741 0.0049570045
000300 4f d5 49 3e 2d d3 2e 3e c3 9b 30 bd 1d f4 0f be
       0.19710277 0.17072745 -0.043117296 -0.14057966
000310 3e ed 05 be f2 c7 e1 bb d7 b1 4c 3e 95 de 34 3e
       -0.13078782 -0.0068902904 0.19989716 0.17663033
000320 0a 9e c1 3d 23 35 cf 3d a5 76 7d 3e 6b eb 62 be
       0.09453972 0.10117557 0.2475229 -0.22160117
000330 09 f3 10 bd 01 83 62 be 6d 24 18 be d6 8d 04 be
       -0.035388026 -0.22120287 -0.14857645 -0.12944731
000340 80 9c a0 bd 40 b3 82 bd 47 2d cb 3d f2 da d1 3d
       -0.0784235 -0.063818455 0.09920745 0.10246839
000350 56 40 55 3e 28 38 02 be b5 42 8d be c4 fa 12 be
       0.20825323 -0.12716734 -0.27589956 -0.14353472
000360 d2 a0 e6 bd 19 a7 59 3c 89 c5 03 3e 71 62 68 bd
       -0.11261143 0.013284468 0.12868322 -0.056734506
000370 39 6c 98 3c 1e 30 4a 3d 56 f1 67 bc 92 93 14 3e
       0.018606292 0.049362294 -0.01415666 0.14509419
000380 a9 b6 80 3d e3 ff dd 3d 29 be 20 be 78 5f 03 be
       0.0628484 0.10839822 -0.1569754 -0.12829387
000390 73 8a 12 3e 08 a4 66 3d 2e 19 06 be 37 f0 57 be
       0.14310627 0.056308776 -0.13095543 -0.21087728
0003a0 a2 0b 89 bd 67 cd 33 3d d8 c1 99 3c 4e 91 3a ba
       -0.06691672 0.04389706 0.01876919 -0.0007116989
0003b0 e8 b5 8c 3d df 88 78 3e d8 75 c9 bd 51 01 eb 3c
       0.06870633 0.24270962 -0.0983693 0.028687151
0003c0 63 3a 2f bd 8d c6 51 bd c0 84 7b 3e f1 4e 32 3d
       -0.04278029 -0.051214743 0.24562359 0.043532316
0003d0 de 61 d1 3d f6 0c 06 3b 45 10 83 3e b7 8e a7 3d
       0.10223745 0.0020454503 0.2559835 0.081815176
0003e0 5b 81 f3 bd 75 ef 14 3c fd 8d 29 ba be 15 52 3d
       -0.11889907 0.009090294 -0.0006467996 0.051290266
0003f0 76 9a f3 bd 13 77 2e bb a6 12 a9 3d b5 b2 99 bc
       -0.118946955 -0.0026621267 0.0825551 -0.018761972

lstm.weight_hh_l1 f4 [512, 128]
000000 84 a4 24 3e ae ec 81 bc 52 e3 cf 3d f3 7c 16 3f
       0.16078383 -0.015859928 0.1015078 0.5878441
000010 9b a9 05 3f 64 2b 53 bf 06 16 a7 3e 44 2c d7 3c
       0.5221192 -0.82488084 0.3263399 0.026266225
000020 53 f7 c1 be 00 a9 19 3d 93 76 2f 3e c6 32 cc bd
       -0.37884006 0.037514687 0.17135076 -0.09970622
000030 a7 a0 b3 3d a2 e4 a6 3e 2c 23 25 3e c7 e6 10 3f
       0.087708764 0.32596308 0.16126698 0.5660214
000040 e0 16 c1 bd b4 db 3f 3d 2d 87 a3 bd b8 61 57 be
       -0.09428191 0.046840385 -0.07984767 -0.2103337
000050 af cb a7 3d 24 18 93 be 92 a9 ad be 89 22 87 bd
       0.081931464 -0.28729355 -0.33918434 -0.06598384
000060 21 52 a6 bd b6 55 c9 bc 7a 5c cc 3e 41 be 63 3d
       -0.081211336 -0.024577003 0.39914304 0.055601362
000070 2c da 0d bf e2 42 d7 bd 99 b9 dd 3e 84 d1 9f be
       -0.5541103 -0.10510804 0.43305662 -0.31214535
000080 c9 a9 74 bd 21 08 ff 3e 52 e7 42 3e 88 bb bb be
       -0.059732232 0.4981089 0.19033554 -0.36666512
000090 d0 3b 06 3e 80 d4 0b 3e 70 6c f4 3c 19 e9 08 3f
       0.13108754 0.13655281 0.029836863 0.5348068
0000a0 05 95 5e 3e 05 64 c4 3e cd 8e 6b 3e 97 e6 7c bd
       0.21736534 0.3835756 0.23003693 -0.061743345
0000b0 17 76 d3 bd cf 08 95 3e 24 fe 8c be 51 f8 c9 bc
       -0.10325258 0.29108283 -0.27537644 -0.02465454
0000c0 d0 44 cc 3e 61 4f eb be b8 16 66 3e 56 74 02 3f
       0.3989625 -0.45959 0.22469604 0.50958765
0000d0 b6 35 cb bd a8 39 ce be e5 d1 cd 3d bf 01 14 3f
       -0.09922354 -0.40278363 0.100498 0.57815164
0000e0 fb bd 17 be 5d f4 be bd 61 e8 b6 bd 40 93 57 bb
       -0.14818566 -0.09323952 -0.089310415 -0.0032894164
0000f0 a4 b6 8a be 8e 7c d1 3d 48 bc 1d bf f4 05 91 bd
       -0.2709247 0.10228835 -0.6161542 -0.070812136
000100 89 7d 8b 3d ed a0 e7 3e a7 da 29 be f0 95 bc bd
       0.06811053 0.45239964 -0.16587315 -0.09208286
000110 fd a8 82 be 64 a0 74 be 3a a4 a6 3e cc 8e 69 3e
       -0.25519553 -0.23889309 0.3254717 0.22808379
000120 be 9a 39 3b 7e 48 5a be 11 47 3f be c2 02 45 bf
       0.0028320993 -0.21316716 -0.18679453 -0.76957333
000130 06 f9 01 3e b7 ae cd be 81 6c 7a bd ab d9 32 3f
       0.12692651 -0.4017236 -0.061138634 0.69863385
000140 a2 40 02 bf 74 d8 08 3e ee f4 78 3c 16 1f 90 3e
       -0.5087987 0.1336382 0.015195115 0.28148717
000150 09 6d 04 bf ae 21 b3 be 73 7f 22 3e 06 51 82 3d
       -0.51728874 -0.34986633 0.1586893 0.0636311
000160 34 e2 a8 3e df 38 e2 3d 3a 71 18 be bf 8c d0 3c
       0.3298508 0.110460036 -0.14886943 0.025457738
000170 ee 18 e3 bd 2b b5 25 3c 6a 56 87 bd 0f f6 a8 3e
       -0.11088739 0.010113995 -0.06608279 0.33000228
000180 ed d3 79 be 02 09 0b bd c1 ad c8 bd 0e ca 67 be
       -0.2439725 -0.033944137 -0.09798766 -0.22635671
000190 46 45 a0 3b 83 f7 bc be 80 67 9f 3e f4 14 1d 3f
       0.0048910705 -0.36907586 0.31133652 0.61360097
0001a0 5a 72 7f bc 39 9d 27 3e e3 61 70 3e d4 17 54 3e
       -0.015591228 0.1636857 0.23474841 0.20712215
0001b0 a0 ad 36 3f e3 6c af bd 57 ce bd 3d 2b 1f b0 bb
       0.7135868 -0.0856569 0.09267872 -0.0053748093
0001c0 02 3c e8 3c 5d 00 13 3f ce 9b 49 bf ab 4c db 3e
       0.028348926 0.5742243 -0.78753364 0.4283193
0001d0 7d 3a 10 3e ff 4f a4 3d b7 41 50 be 71 f5 41 bd
       0.14084812 0.080230705 -0.20337568 -0.04735321
0001e0 02 94 ad 3e c1 28 f8 3e 19 d8 2f bc 50 bc 6d 3e
       0.33901983 0.48468593 -0.010732674 0.23216367
0001f0 8d fa 4f 3c f7 5d 84 be 2d 00 f9 bc 7a 05 de be
       0.012694013 -0.2585294 -0.030395592 -0.43363553
000200 4b e5 00 3f ca 54 bc 3e ee c5 e9 bc b7 f2 f3 3e
       0.50349873 0.3678344 -0.028536763 0.47646114
000210 88 68 bc be 82 b1 31 3f 8c 7d 52 3e 03 54 9e bd
       -0.367985 0.6941148 0.20555705 -0.07730868
000220 03 58 91 be 34 31 ed 3d e5 0d 81 be a5 ee cc bd
       -0.2838746 0.115816504 -0.25205913 -0.10006455
000230 1c f9 41 3e b9 3a 4f 3e 96 93 6a bd d4 67 7d 3f
       0.18942684 0.20237245 -0.057269655 0.98986554
000240 13 9b 76 3e b7 cf 52 3d a6 fb ef be b9 c6 08 3e
       0.24082594 0.051467624 -0.4687168 0.13357057
000250 17 69 9e 3e 1d f0 24 bf c1 f1 a7 3e b3 00 15 bf
       0.30939552 -0.64428884 0.3280163 -0.5820419
000260 c6 97 c7 3c 6a 48 11 be cb 31 06 3f 29 82 f3 be
       0.024364363 -0.1418778 0.5241973 -0.47560242
000270 9b a0 15 3d 78 9b 4c 3d 11 02 cd 3e 28 15 04 be
       0.03653012 0.049952954 0.4004064 -0.12898695
000280 ff 0c 06 bf d4 51 95 3e 0b eb a6 bd 83 f2 e9 3e
       -0.5236358 0.29163992 -0.081503 0.45692834
000290 27 57 63 3e bb f3 15 bf 9f b5 65 bf 4e 97 3e bc
       0.22201215 -0.5857503 -0.89730257 -0.011632754
0002a0 fe 38 79 be ed b4 11 3f d7 cc ef bd 1a af 81 bc
       -0.24338147 0.56916696 -0.11708992 -0.015830565
0002b0 8d 43 0e be c5 cc 95 bc 72 ac a5 3d 6d a4 c7 3e
       -0.13892956 -0.018286118 0.08089532 0.38992634
0002c0 ea 1c 3d 3e c9 b9 38 3d 35 b5 81 3e 0f 55 19 bd
       0.18468061 0.045099054 0.25333562 -0.037434634
0002d0 5c 2d e2 3e 27 d0 00 be b5 4f f4 be ca e3 ea 3e
       0.4417523 -0.12579404 -0.47717062 0.45876914
0002e0 f3 a6 ca 3c 80 c9 b5 3e 12 4a f1 38 23 5e 4c 3e
       0.02473781 0.35505295 0.00011505572 0.19957785
0002f0 d2 6c 36 bf 63 a7 f8 3e 1d 14 30 be 32 48 0a bf
       -0.71259797 0.48565206 -0.17195173 -0.5401641
000300 44 a6 e2 3e 12 b3 02 3e 54 87 7f 3e 08 a7 1d bf
       0.44267476 0.12763622 0.24953967 -0.61582994
000310 5d fc 8d 3e 64 70 52 3d a1 3d 0d bf 8b 26 c0 be
       0.277316 0.051376715 -0.55172163 -0.37529406
000320 bd 05 00 be 1d 0b 82 bd f6 0f 01 be 88 6d 73 3e
       -0.12502189 -0.06349776 -0.12603745 0.23772252
000330 ea dd 94 3e 14 fd 0c 3f b6 fa 96 bd 3b a8 2d 3f
       0.29075557 0.55073667 -0.07372038 0.67834824
000340 af 9c 35 be 8d ec 26 3e 3b fa 89 bd c0 5a 2f 3c
       -0.17735551 0.16301174 -0.06737181 0.010702789
000350 71 1c 93 3e aa 0e 53 3e db d7 22 3e 89 9b b6 be
       0.28732637 0.20611063 0.15902655 -0.3566554
000360 ac 4b ff 3e 07 b2 f2 be 98 67 c8 3e 38 38 1d be
       0.4986242 -0.4740145 0.39141536 -0.15353477
000370 00 aa 08 3e a9 7a 1d bc 4d 88 81 be 17 83 04 3e
       0.133461 -0.009611764 -0.25299302 0.12940632
000380 71 fa a2 be 5f a9 bb 3c 9a de c7 3e 3b 38 e2 bc
       -0.31831697 0.02290791 0.3903702 -0.027614703
000390 b6 03 88 3e 24 75 d0 3d 0d 0a 1e 3d 25 fc af 3e
       0.2656533 0.10178593 0.038583804 0.3437206
0003a0 2a fb 45 3c 91 e2 2f 3e a7 26 de 3e f3 68 de 3e
       0.012083808 0.17176272 0.43388864 0.43439445
0003b0 51 24 61 3e 66 97 ca 3e d0 b6 fe bb f3 41 80 bd
       0.2198651 0.39568633 -0.007773258 -0.06262579
0003c0 de d8 49 bf c8 e4 8d 3e 6f b1 99 be 78 d5 87 bc
       -0.7884654 0.2771361 -0.30018184 -0.016581282
0003d0 b5 1c 3f be b8 17 3e 3e fa 7e 2f 3e 27 fa 41 3d
       -0.18663295 0.18563735 0.17138281 0.047357704
0003e0 f9 97 24 bd 83 5c 3f 3e 9e ca cd 3c 00 f0 2b be
       -0.040183995 0.18687634 0.02512103 -0.16790771
0003f0 5f e0 e3 3c ae 97 18 bc 15 79 06 3e 30 29 33 3f
       0.02781695 -0.009313507 0.13132127 0.6998472
