model/bi_lstm/best_model_fold2.pt (torch, 988002 bytes, 13 tensors)

token_emb.weight f4 [75, 64]
0	0xbca319a2	-0.019909684
1	0x3c94178c	0.018077634
2	0xbc321371	-0.010868893
3	0xb99a2ef1	-0.00029408143
4	0x3bd4a8ff	0.0064898725
5	0xbb275dd6	-0.0025538108
6	0xbc001b4b	-0.007819007
7	0xbc3debbe	-0.01159185
8	0x3c06a07d	0.008216974
9	0x3ba41478	0.005007323
10	0xbcf54e75	-0.029944638
11	0x3b4addf5	0.003095505
12	0xbc05c929	-0.008165636
13	0x3bf08848	0.0073404647
14	0xbaa809ba	-0.0012820282
15	0x3b734f51	0.0037126134
16	0xbc25a49f	-0.0101100495
17	0xbc7bb8b8	-0.015363865
18	0x3cbae7b2	0.022815559
19	0x3af93e23	0.001901571
20	0xbb11eb91	-0.0022265653
21	0x3a6a95fb	0.00089487404
22	0xb9870bdc	-0.00025758042
23	0xbb0f07ee	-0.0021824795
24	0x3923a7dd	0.00015607425
25	0xbc3c8ce0	-0.011508197
26	0xbb66e92c	-0.0035234196
27	0x3bd616a9	0.006533463
28	0x3c9f853d	0.019472713
29	0x3c8e37a8	0.017360523
30	0xbca4633b	-0.020066848
31	0x3caf122d	0.021370972
32	0x3c1fb8c9	0.009748646
33	0x3c1425f0	0.009042248
34	0x3c4f1da8	0.012641348
35	0x3b2614c4	0.0025341967
36	0xbb68a993	-0.0035501465
37	0x3be5b110	0.007009633
38	0x3ba14091	0.004921027
39	0x3a550082	0.0008125381
40	0xbc5020db	-0.012703146
41	0xbcbc284b	-0.022968432
42	0x3c12124c	0.008915495
43	0x3b97dfe7	0.0046348455
44	0x3cda0c04	0.026617058
45	0xbb1a4450	-0.0023539253
46	0x3bc6f270	0.0060713813
47	0xbb9ec518	-0.0048452727
48	0xbbfd4150	-0.007728733
49	0x3c5b3ac7	0.013380713
50	0x3c202668	0.009774782
51	0x3c114778	0.008867137
52	0x3b98384c	0.004645383
53	0x3adfe2ab	0.0017081102
54	0xbc1ff1a0	-0.009762198
55	0x3c9090d6	0.017647188
56	0x3aabb42e	0.0013099962
57	0x3c05b004	0.008159641
58	0x3c874a10	0.016514808
59	0x3c4b4338	0.012406163
60	0xbc769828	-0.015050925
61	0x3ac4bc71	0.0015009773
62	0xbc8cd539	-0.017191516
63	0x3c837514	0.016047038
64	0x3e698184	0.22803313
65	0x3e229189	0.1587583
66	0xbbc31835	-0.0059538134
67	0x3dcf2828	0.10115081
68	0x3e1d31ad	0.15350981
69	0xbe57f09a	-0.21087876
70	0xbdb2f983	-0.08738997
71	0x3e13f385	0.14448364
72	0x3d82d62f	0.063885085
73	0xbe23e7b6	-0.1600636
74	0xbe0093b9	-0.12556352
75	0x3e6b1afb	0.22959511
76	0xbdb451a6	-0.08804636
77	0xbf0e5fee	-0.5561513
78	0xbecf32d1	-0.40468457
79	0x3e74fa93	0.23923711
80	0xbd94efd2	-0.072723046
81	0x3ede5607	0.4342501
82	0xbd9cde39	-0.07659573
83	0x3eb973d4	0.36221182
84	0xbe7696a1	-0.24080898
85	0xbd66536b	-0.056231897
86	0x3e117a26	0.14206752
87	0x3ecf4e4d	0.40489426
88	0xbd9835cf	-0.07432138
89	0xbea4118e	-0.32044643
90	0xbe2a886c	-0.16653603
91	0x3ebd44ea	0.3696664
92	0xbcb4e83f	-0.0220834
93	0xbeb79062	-0.35852343
94	0x3b92b0db	0.004476649
95	0xbdc982eb	-0.09839424
96	0x3dcc8365	0.09985999
97	0xbf06ab36	-0.52605
98	0xbf02cc7d	-0.51093274
99	0x3eced660	0.4039793
100	0xbf0dca85	-0.55387145
101	0xbe3651cc	-0.1780464
102	0x3e57c5ad	0.21071501
103	0x3e9fe193	0.31226787
104	0x3ece15a5	0.40250888
105	0x3e6d710d	0.23187657
106	0x3e8f7cbf	0.2802486
107	0xbe035d43	-0.12828545
108	0xbd7eb895	-0.06218775
109	0x3eb4a8c9	0.35285023
110	0x3e140935	0.14456637
111	0xbe3eface	-0.18650362
112	0x3e16c9a1	0.14725353
113	0xbe18e775	-0.14932044
114	0xbd953f8a	-0.0728751
115	0x3e7d54dc	0.24739403
116	0xbf1d230a	-0.6138159
117	0x3e95750d	0.29190865
118	0x3ec664b6	0.3874871
119	0x3ef19eb4	0.47191393
120	0xbdc14018	-0.09436053
121	0x3efcdf82	0.49389273
122	0x3dbd2c44	0.092369586
123	0xbe0f599f	-0.13999031
124	0x3eda478e	0.42632717
125	0x3de476a6	0.11155443
126	0xbece5b86	-0.40304202
127	0x3f12e988	0.5738759
128	0xbb2928ca	-0.0025811666
129	0xbc67eb66	-0.014155244
130	0xbc344df1	-0.011004911
131	0xbabdac26	-0.001447086
132	0x3c03dd7a	0.00804841
133	0x3ca5a856	0.02022187
134	0x3a28a33d	0.0006433016
135	0x3c1aecb4	0.0094558485
136	0x3c13f1a6	0.009029781
137	0xbc81aa97	-0.015828414
138	0x3c8f4506	0.017488968
139	0x3baea4c1	0.005329699
140	0xbb8a9721	-0.0042294418
141	0x3c32cba3	0.010912809
142	0xbc2c9d9e	-0.010535626
143	0xb9eafa12	-0.00044818275
144	0x3a0c8a3b	0.0005361174
145	0xbbd1f524	-0.006407397
146	0x3c866ef1	0.016410323
147	0x3c3241fc	0.01087999
148	0x3b85c2dd	0.0040820674
149	0x3cfa4c88	0.030554071
150	0xbcac13bd	-0.021005506
151	0x39ce2a59	0.00039322933
152	0xbac71323	-0.0015188198
153	0xbc4c4440	-0.012467444
154	0x3ca91db5	0.020644048
155	0x3c17f9c8	0.009275861
156	0x375f3e30	1.3306315e-05
157	0x3cdd5c2a	0.027021486
158	0x3bd06666	0.006359863
159	0x3c350ea8	0.011050858
160	0x3c1c5f80	0.009544253
161	0xbc8a8249	-0.016907828
162	0x3a9fca4b	0.0012191025
163	0x3bae0dc5	0.0053117
164	0x3c212392	0.009835141
165	0x3b9b707e	0.0047436347
166	0xbcd065f3	-0.025439238
167	0xba24cc56	-0.0006286552
168	0x3cd18842	0.025577668
169	0xb765b37c	-1.3691253e-05
170	0xbc6c5301	-0.014424087
171	0xbac539b6	-0.0015047106
172	0xba800e62	-0.0009769911
173	0x3c38426f	0.011246308
174	0x3c9a91a5	0.018868277
175	0x39ebaffc	0.0004495381
176	0xbc159e5f	-0.009131997
177	0x3b82a5e2	0.00398706
178	0x3aeba790	0.0017979015
179	0x3b78d8a6	0.003797093
180	0xb91c49d8	-0.00014904828
181	0x3b345206	0.002751471
182	0x3b5e5fa8	0.0033931527
183	0xbc81b590	-0.015833646
184	0xbc5d1a08	-0.013494976
185	0xbb81e577	-0.003964122
186	0x3c98fc17	0.018674893
187	0xbc62aa2a	-0.013834516
188	0x3ac60ef3	0.0015110656
189	0xbbf6c8a8	-0.0075312443
190	0x3c8cc9da	0.017186094
191	0x3ca1a122	0.019730154
192	0xbc52e368	-0.012871601
193	0x3aaee380	0.0013342947
194	0x3c503aee	0.012709362
195	0x3af37f42	0.0018577354
196	0x3c2f0097	0.010681293
197	0xbb0d9b5b	-0.0021607492
198	0x3cb33b3b	0.02187883
199	0x3c484e22	0.01222566
200	0x3c57815f	0.013153403
201	0xbc1e22f1	-0.009651885
202	0xbb887b0c	-0.004165059
203	0xbb1e7979	-0.002418129
204	0xbc9143a3	-0.017732447
205	0xbbdd5776	-0.006754811
206	0xbcad2576	-0.021136027
207	0xbbeaecdb	-0.0071693487
208	0x3c47c1e2	0.012192221
209	0x3af6c1d8	0.001882608
210	0x3cc4a913	0.024006402
211	0xbb83c52b	-0.004021307
212	0x3b9f0a4f	0.004853524
213	0xbbb14a62	-0.0054104785
214	0x3ca2269e	0.019793805
215	0xb9b5ff99	-0.00034713445
216	0x3b80fb62	0.003936217
217	0xbc4235ed	-0.011853677
218	0x3c020896	0.007936617
219	0x3ad611bd	0.0016332191
220	0x3c3dc8b9	0.011583501
221	0xba733474	-0.00092775305
222	0x3b876889	0.0041323346
223	0x3b9cd9c4	0.004786702
224	0xbc05ff11	-0.008178488
225	0xbc4e22eb	-0.012581567
226	0x3c8b16c7	0.016978635
227	0xbc5f6e86	-0.013637191
228	0xbc1c2a41	-0.0095315585
229	0xbb926e56	-0.0044687195
230	0xbb8bf2d4	-0.0042708907
231	0xbc45b70e	-0.012067569
232	0xbc82cf19	-0.015967892
233	0x3c7ac977	0.015306822
234	0xbc01cd5e	-0.0079224985
235	0x3b96ba31	0.0045998325
236	0xbc61d2d9	-0.01378318
237	0x3caa3e28	0.020781592
238	0xbccdbb91	-0.025113853
239	0x3ca780e8	0.02044721
240	0xbb67813a	-0.0035324828
241	0xba22b188	-0.0006206264
242	0x3c2a52af	0.01039569
243	0x3c6ab268	0.014324762
244	0xbbcc999c	-0.0062438976
245	0xbbfecbe1	-0.007775769
246	0xbbb39637	-0.0054805535
247	0x3bf3ea68	0.007443715
248	0x3cb80a48	0.02246584
249	0xbc838954	-0.016056694
250	0xbc6919f1	-0.014227376
251	0x3b8e250d	0.004337913
252	0xbc02b135	-0.00797682
253	0xbb333747	-0.002734618
254	0x3bdd0714	0.0067452285
255	0xbbd96e76	-0.0066354824

lstm.weight_ih_l0 f4 [512, 64]
0	0x3d3e8f97	0.046523657
1	0x3d029178	0.03187701
2	0x3d3fd1cd	0.04683094
3	0xbd4d5ec8	-0.05013922
4	0x3e689a6c	0.22715157
5	0xbdec3831	-0.11534155
6	0x3d09bd97	0.033628073
7	0x3efccd18	0.49375224
8	0x3e17a2b2	0.14808157
9	0xbdef951e	-0.11698364
10	0x3e5f8978	0.21829784
11	0xbea174e8	-0.31534505
12	0xbe41480e	-0.18875143
13	0xbebbbae4	-0.36666024
14	0xbac628d5	-0.001511837
15	0x3e8a5dd7	0.2702472
16	0x3ec87477	0.39151356
17	0xbf3aacc1	-0.7291985
18	0xbe37b3bc	-0.17939657
19	0x3e819f9a	0.2531708
20	0xbc88724b	-0.016656062
21	0xbe552e0c	-0.20818347
22	0xbe0f58ea	-0.13998762
23	0x3ef15960	0.471385
24	0x3e9e73f8	0.30947852
25	0x3e3e07e2	0.18557695
26	0xbe10b799	-0.14132537
27	0x3e8c02cc	0.27345884
28	0xbea2275a	-0.31670648
29	0xbe5304c5	-0.20607288
30	0x3e2a9e5c	0.16661972
31	0xbddb12da	-0.10696955
32	0xbf03a45c	-0.5142267
33	0xbbf49d48	-0.0074650384
34	0xbe1b48ff	-0.15164565
35	0xbd4d0ee4	-0.05006303
36	0x3d0551bd	0.032548655
37	0xbdec534b	-0.115393244
38	0x3b934822	0.004494683
39	0x3b0654e9	0.0020497388
40	0xbd8a7dc1	-0.06762267
41	0x3cadeedb	0.02123206
42	0x3e87b6ad	0.26506558
43	0xbde8bf07	-0.113645606
44	0xbe98cd81	-0.29844287
45	0x3e5c54c9	0.21516718
46	0xbebefa93	-0.37300548
47	0xbac6ae2d	-0.001515811
48	0x3d3522c8	0.044222623
49	0x3dc3e812	0.09565748
50	0x3ecfb1d1	0.4056535
51	0xbe8a8606	-0.27055377
52	0x3edbe3dc	0.4294728
53	0xbcc99f72	-0.024612162
54	0x3de213bb	0.110389195
55	0xbcd5770e	-0.026057746
56	0xbda00519	-0.07813472
57	0x3e942048	0.2893088
58	0xbeb538e6	-0.35394973
59	0x3ed1d414	0.40982115
60	0xbef2ed68	-0.47446752
61	0x3f012329	0.50444275
62	0x3ea9131c	0.33022392
63	0xbede1bd4	-0.43380606
64	0x3d3fab75	0.046794374
65	0xbead1384	-0.33803952
66	0x3e881a0a	0.26582366
67	0xbe217fed	-0.15771456
68	0x3e38048b	0.17970483
69	0xbe1f84b5	-0.15577967
70	0xbe877af8	-0.26461005
71	0x3e3e9fa3	0.18615584
72	0x3e302b18	0.17203939
73	0xbe44b8fd	-0.19211192
74	0xbe92de53	-0.28685245
75	0xbe050dcc	-0.12993544
76	0xbe0b3597	-0.13594662
77	0x3c3a0cc8	0.011355586
78	0xbe8e780d	-0.27825966
79	0x3ed4871f	0.4150934
80	0xbddc7c78	-0.10765928
81	0xbedc7f7c	-0.43066013
82	0x3da0ebac	0.07857451
83	0x3f2e5fb5	0.6811479
84	0x3e5eb80f	0.217499
85	0xbe2f789e	-0.17135856
86	0xbccf33d5	-0.02529327
87	0x3ea6b4b7	0.3255975
88	0xbec47f68	-0.38378453
89	0xbd991963	-0.07475545
90	0x3d3e8f4a	0.04652337
91	0x3e1caeb3	0.15301017
92	0xbe4a4db6	-0.19756207
93	0xbe50222a	-0.20325533
94	0x3e40f451	0.188432
95	0xbe5c7f64	-0.2153297
96	0xbd8f63ea	-0.07001479
97	0xbe9ac30c	-0.30226934
98	0xbe6f091b	-0.23343317
99	0xbe0e7608	-0.13912213
100	0x3e564477	0.20924555
101	0x3ebe68d4	0.37189353
102	0x3ea14975	0.31501356
103	0x3e7cb30d	0.24677677
104	0x3db6a268	0.08917695
105	0xbea73468	-0.3265717
106	0x3d5c8fae	0.05384796
107	0x3d6db5a3	0.05803455
108	0x3e2dfeef	0.1699178
109	0x3e112183	0.1417294
110	0x3c050e51	0.008121089
111	0x3eab2f09	0.33434322
112	0xbebe9edf	-0.37230584
113	0x3c2b948d	0.010472429
114	0xba98c34e	-0.0011654885
115	0xbd07d711	-0.033164088
116	0x3e166003	0.14685063
117	0x3ef625b5	0.48075643
118	0x3dbebf89	0.09313876
119	0xbe7b1dc2	-0.2452307
120	0xbd62c2d0	-0.05536157
121	0xbec29762	-0.3800612
122	0xbe486d80	-0.19573021
123	0x3e386739	0.18008126
124	0xbd83b0a9	-0.064301796
125	0x3cc8a024	0.024490424
126	0x3e9bd117	0.3043296
127	0xbd49b886	-0.04924824
128	0xbd372142	-0.04470945
129	0x3cb1a137	0.021683319
130	0xbd286fd5	-0.041122276
131	0xbe4cfde8	-0.20018733
132	0xbdc7deab	-0.097592674
133	0xbd2b5908	-0.041832954
134	0x3dc31c5a	0.09526892
135	0x3df59123	0.11990573
136	0xbcef5d4f	-0.029219298
137	0xbcea4853	-0.02859894
138	0xbc922a73	-0.017842507
139	0xbd3a452f	-0.045476135
140	0x3dcb0bfc	0.09914395
141	0xbc257a7e	-0.010100005
142	0xbd84538b	-0.06461247
143	0x3c34d699	0.011037492
144	0xbeb42f29	-0.3519223
145	0xbe894270	-0.268085
146	0xbdce2db3	-0.1006731
147	0x3e6c6561	0.23085548
148	0xbe0c909b	-0.13727038
149	0xbe2fcf39	-0.17168893
150	0xbdca55d2	-0.0987965
151	0xbe68012b	-0.22656696
152	0xbe9eebec	-0.3103937
153	0xbd05f003	-0.032699596
154	0xbe9fe843	-0.3123189
155	0xba4500f3	-0.0007515095
156	0xbe240eae	-0.16021225
157	0x3ebbb4da	0.36661416
158	0x3ebb0493	0.36526927
159	0x3e39a84f	0.18130611
160	0x3e1547f3	0.14578228
161	0x3e487167	0.1957451
162	0x3e9b56a5	0.30339542
163	0x3c1370db	0.008999075
164	0x3e4a4913	0.19754438
165	0xbde32e9d	-0.11092875
166	0x3e60f731	0.21969296
167	0x3df4dfaf	0.11956727
168	0xbe587f89	-0.21142401
169	0xbddd55b9	-0.10807366
170	0xbdae3f24	-0.08508137
171	0xbe097366	-0.13422927
172	0x3cf13715	0.02944521
173	0xbc640c26	-0.013918912
174	0x3c11dad5	0.008902271
175	0xbe18cded	-0.14922304
176	0xbde48d3b	-0.1115975
177	0xbe5ec875	-0.21756156
178	0x3e7dd962	0.24789956
179	0x3cf5b710	0.029994518
180	0x3e5a982c	0.21347111
181	0x3d168575	0.03674837
182	0x3d0d25da	0.034459926
183	0x3d082965	0.033242602
184	0x3e104c25	0.14091547
185	0x3d69f29d	0.05711614
186	0xbe0b0d41	-0.13579275
187	0xbe01bd7b	-0.12669937
188	0xbe116845	-0.14199932
189	0xbbd47673	-0.006483847
190	0x3bbac9c4	0.005700322
191	0xbe931c74	-0.28732646
192	0xbcfa9436	-0.03058825
193	0xbe2f68fa	-0.17129889
194	0x3eb6305e	0.35583776
195	0xbe69f355	-0.2284673
196	0xbbe02a52	-0.0068409825
197	0xbe6e5077	-0.23272882
198	0xbed42585	-0.41434875
199	0xbdf3677d	-0.11884973
200	0x3ddbeffc	0.10739133
201	0x3dc23c18	0.09484118
202	0xbe8c3cce	-0.2739014
203	0x3f156ef1	0.5837241
204	0xbebb414c	-0.36573255
205	0x3d188e34	0.03724499
206	0xbe478254	-0.1948331
207	0xbd565a20	-0.052332044
208	0xbee87cd9	-0.4540775
209	0x3e962451	0.29324582
210	0xbda6fefd	-0.08154104
211	0x3d89830e	0.0671445
212	0x3f0dc519	0.5537887
213	0x3e85ca31	0.26130822
214	0xbd1eba45	-0.03875186
215	0x3e0ba84a	0.13638416
216	0xbeb88436	-0.3603837
217	0xbdded4e5	-0.1088045
218	0x3f201f2e	0.62547576
219	0xbe85cd71	-0.26133302
220	0x3e13c3fd	0.14430232
221	0xbe9c1d85	-0.30491272
222	0xbe804b28	-0.2505734
223	0xbe9b591a	-0.30341417
224	0x3e950ea7	0.2911274
225	0xbe5f993d	-0.218358
226	0xbdf403d6	-0.11914794
227	0xbedfc517	-0.43705055
228	0x3f0321cb	0.5122344
229	0x3ee99da0	0.4562807
230	0xbdd3466b	-0.103161655
231	0x3eede301	0.46462253
232	0x3e751ebb	0.23937504
233	0xbe0dc15f	-0.13843296
234	0x3e12465f	0.14284657
235	0x3ef1447d	0.47122565
236	0x3e63e35c	0.222547
237	0xbdd0d252	-0.101963654
238	0x3d26a51a	0.040684797
239	0x3e5914ca	0.21199337
240	0xbe1ea3ed	-0.1549222
241	0xbe43b189	-0.19110693
242	0xbf15f077	-0.58570045
243	0x3ec345c8	0.38139176
244	0x3da744aa	0.081673935
245	0x3ebc6c15	0.3680121
246	0xbe1cf05d	-0.15326066
247	0xbe870f2e	-0.2637877
248	0xbe209250	-0.15680814
249	0xbdac2153	-0.084047936
250	0x3e9f5b18	0.31124187
251	0x3d62acd0	0.055340588
252	0xbd93f638	-0.07224697
253	0x3e69c0b5	0.22827418
254	0x3ec9617f	0.39332196
255	0x3e39bba4	0.18137985

lstm.weight_hh_l0 f4 [512, 128]
0	0xbd667a0d	-0.05626874
1	0xbddb743b	-0.107155286
2	0x3e66b5db	0.2253031
3	0x3d6af970	0.05736679
4	0x3e913f11	0.28368428
5	0xbe492903	-0.19644551
6	0xbef6e014	-0.48217833
7	0x3e9326b0	0.28740454
8	0x3e715c7e	0.23570439
9	0x3e4d28f2	0.2003515
10	0xbdc49fca	-0.0960079
11	0xbea7edb9	-0.32798555
12	0x3f3f7543	0.747883
13	0x3e60b2d2	0.21943215
14	0xbdb8fe2c	-0.090328544
15	0xbe265213	-0.16242246
16	0x3eea4ff8	0.45764136
17	0xbdf7ee09	-0.121059485
18	0x3cf771c0	0.030205607
19	0xbec08a5a	-0.37605554
20	0x3e4a76f0	0.19771934
21	0x3dbe0c5c	0.09279701
22	0xbe3c4654	-0.18386203
23	0xbe0f98f8	-0.14023197
24	0xbe7e05b6	-0.24806866
25	0x37e8a32a	2.7732534e-05
26	0x3d02e934	0.03196068
27	0x3db7ba87	0.08971124
28	0xbef0f003	-0.47058114
29	0xbf00cb9b	-0.5031068
30	0xbf18a38e	-0.59624565
31	0x3e872c32	0.26400906
32	0x3f159b6c	0.5844028
33	0x3da6db74	0.08147326
34	0xbe0d94c1	-0.13826276
35	0x3e5fff36	0.21874699
36	0x3d1f5a3e	0.03890442
37	0x3e929ee8	0.2863686
38	0x3d28ca35	0.041208465
39	0xbd33c3e9	-0.043888006
40	0x3e6a7739	0.22897042
41	0xbd8c9042	-0.068634525
42	0x3beb7cbb	0.0071865
43	0xbee75e10	-0.45188951
44	0x3c97861a	0.018496562
45	0x3de04cca	0.10952146
46	0xbee3eabd	-0.4451503
47	0xbeb3a14e	-0.35084003
48	0xbec3e686	-0.38261813
49	0xbe165c1b	-0.14683573
50	0x3f13f232	0.57791436
51	0xbe3c27f5	-0.18374617
52	0xbf118109	-0.5683752
53	0xbede2ddc	-0.43394363
54	0xbeb06dd4	-0.34458792
55	0x3e93da2d	0.28877392
56	0xbdceecf9	-0.10103793
57	0xbecf1f46	-0.40453547
58	0xbeb43ad2	-0.35201126
59	0xbe62bde7	-0.22142754
60	0x3ed50e8c	0.4161266
61	0xbeb7a6f6	-0.3586957
62	0x3eac84d6	0.33695096
63	0x3e0557ee	0.13021824
64	0x3dabfc50	0.08397734
65	0x3d0b108d	0.03395133
66	0x3d302581	0.043004517
67	0xbec2b222	-0.3802653
68	0x3c431674	0.011907209
69	0x3eaa5708	0.33269525
70	0x3e3f2471	0.18666245
71	0x3ea33f80	0.31884384
72	0x3e2a26c0	0.16616344
73	0x3ea51f8d	0.32250634
74	0x3e296d56	0.16545615
75	0xbe1a3439	-0.15058984
76	0x3d83a059	0.06427068
77	0x3f3533c7	0.7078213
78	0xbf0356e5	-0.51304466
79	0xbe72e4b3	-0.23720054
80	0x3e3c1e39	0.18370904
81	0xbdbe377d	-0.09287927
82	0xbddc7e4f	-0.10766279
83	0x3e1e9259	0.15485515
84	0x3d2fec20	0.042949796
85	0x3e012105	0.12610252
86	0xbe937935	-0.2880341
87	0x3e3380b9	0.17529573
88	0x3ea8bedf	0.32958123
89	0x3e796ed8	0.2435869
90	0x3ea5e900	0.32404327
91	0x3e1a12ff	0.15046309
92	0x3eb83346	0.3597662
93	0x3efde80b	0.49591097
94	0xbed3d5bd	-0.41374007
95	0xbd8a2a60	-0.06746364
96	0x3e7784ef	0.24171804
97	0x3daded2c	0.084925026
98	0x3e7ab03f	0.24481295
99	0xbed6da00	-0.41963196
100	0x3ec06205	0.37574783
101	0x3c75b722	0.014997276
102	0xbeb844b8	-0.35989928
103	0x3eab4324	0.33449662
104	0xbeeb4bd2	-0.45956284
105	0x3e7a600d	0.24450703
106	0xbcbf0f05	-0.023322592
107	0xbf1c3bd8	-0.61028814
108	0x3ed09a29	0.40742615
109	0x3e3a7934	0.18210298
110	0xbe6606c7	-0.22463523
111	0xbe74b597	-0.23897396
112	0x3d8ecde1	0.06972862
113	0x3eb9b07f	0.36267468
114	0x3dfcb08d	0.12338362
115	0x3e30953a	0.17244425
116	0xbe349581	-0.17635156
117	0x3dd7dbfe	0.10540007
118	0xbe6742ba	-0.22584048
119	0x3f166b9e	0.5875796
120	0xbb94c56e	-0.004540137
121	0xbe0185d3	-0.12648706
122	0xbccc22ff	-0.024919031
123	0x3e572f77	0.210142
124	0xbea6e821	-0.32598975
125	0x3ced26b6	0.028949123
126	0xbd031b63	-0.03200854
127	0xbea78e69	-0.32725838
128	0xbe4a0da5	-0.19731767
129	0xbeb002ab	-0.34377035
130	0xbe857f1c	-0.2607354
131	0xbf07d4f2	-0.53059304
132	0x3d7f25dc	0.062291965
133	0xbf0e9626	-0.5569786
134	0xbf053248	-0.5202985
135	0x3ee7d90b	0.45282778
136	0xbe3bc712	-0.18337658
137	0xbec5b06e	-0.38611168
138	0xbeb91544	-0.36149037
139	0xbf1197bf	-0.5687217
140	0x3e68c71b	0.22732203
141	0xbe8dcc02	-0.27694708
142	0xbf0036a0	-0.5008335
143	0xbe519c7d	-0.20469852
144	0x3d6db394	0.058032587
145	0xbcf50eda	-0.029914308
146	0x3e69bdbd	0.22826286
147	0x3c1124a1	0.008858831
148	0xbe812184	-0.25220883
149	0xbebed2df	-0.37270257
150	0x3f036498	0.5132537
151	0xbe8e808f	-0.27832457
152	0x3f066ba8	0.5250802
153	0x3f1ae8cc	0.6051147
154	0xbf200e70	-0.6252203
155	0xbf962240	-1.1729202
156	0xbeb6b8f4	-0.35687983
157	0xbec77162	-0.38953692
158	0xbe4ce2d1	-0.20008399
159	0x3f0059c6	0.50136983
160	0x3cd13d78	0.025542006
161	0xbe3c0836	-0.18362507
162	0x3da9da96	0.08293645
163	0xbd97946b	-0.07401355
164	0xbf32f158	-0.6989951
165	0xbec69ae2	-0.3879004
166	0xbe8bc1ef	-0.27296397
167	0x3e918d3c	0.28428066
168	0x3ebd86e2	0.3701697
169	0xbd8eabdb	-0.069663726
170	0xbe43e5bf	-0.1913061
171	0x3f6ea649	0.9322248
172	0xbefa0e19	-0.4883888
173	0x3f86ec66	1.0540893
174	0x3e0a00eb	0.13476913
175	0xbe472bf4	-0.1945036
176	0x3e527e9f	0.20556115
177	0x3e807e89	0.2509654
178	0x3ecb708f	0.39734313
179	0xbed2bc54	-0.41159308
180	0x3cb1d893	0.021709716
181	0xbdc51d41	-0.0962472
182	0xbec7c0f3	-0.39014396
183	0xbf42fda0	-0.7616825
184	0x3e6c8c09	0.23100294
185	0x3ca16a08	0.01970388
186	0x3ea45fea	0.32104427
187	0xbf183411	-0.5945445
188	0x3eaaf0e8	0.33386922
189	0x3e4206b8	0.18947875
190	0x3ef3263b	0.47490105
191	0x3cf687ac	0.03009399
192	0xbe34dcf3	-0.1766241
193	0x3e01148c	0.12605494
194	0xbd5aa68e	-0.053381495
195	0xbee21a5c	-0.44160736
196	0xbebd812b	-0.3701261
197	0x3e42aa12	0.19010189
198	0x3d1388bc	0.036019072
199	0x3ef276ac	0.47356164
200	0x3f0b56ac	0.54429126
201	0x3dcccf4b	0.100004755
202	0xbeb0d094	-0.34534132
203	0xbe9a9bdf	-0.30197045
204	0x3d9a16c8	0.075238764
205	0x3f6887b7	0.90832084
206	0xbe6e00a0	-0.23242426
207	0x3e8daffa	0.27673322
208	0xbdb06ef4	-0.08614913
209	0xbe0ed3a3	-0.1394792
210	0xbe8184d0	-0.2529664
211	0x3ce74657	0.028231783
212	0xbda6860e	-0.08131038
213	0xbe959156	-0.29212445
214	0xbea75bc7	-0.32687208
215	0x3e8ee9eb	0.2791284
216	0x3f257c6e	0.6464299
217	0x3cb0dd62	0.021589939
218	0x3f11f57c	0.57015204
219	0xbe985736	-0.29754037
220	0xbe5f5d13	-0.21812849
221	0x3f30a125	0.6899589
222	0xbeb4a069	-0.35278633
223	0x3e83dfdb	0.25756726
224	0xbdd67582	-0.104716316
225	0x3e7b8563	0.24562602
226	0xbe2c749a	-0.16841355
227	0x3ecdd9b0	0.40205145
228	0x3f022205	0.5083316
229	0x3eb1b36d	0.34707204
230	0xbf2cd09d	-0.6750582
231	0xbc43ea49	-0.011957713
232	0xbf64dcf7	-0.89399666
233	0x3efd4fc0	0.49474907
234	0xbe8c52b7	-0.27406856
235	0xbe7068c4	-0.23477465
236	0x3f1cae1b	0.61203164
237	0x3f03f382	0.5154344
238	0xbde2413c	-0.11047599
239	0xbeaf2128	-0.34204984
240	0x3de08682	0.10963155
241	0x3e4d3396	0.2003921
242	0xbf5ee2b9	-0.870647
243	0xbd084b45	-0.033274908
244	0xbef8caac	-0.48592126
245	0x3edf9734	0.43670046
246	0x3c1ff852	0.009763794
247	0x3e8b7fc2	0.2724591
248	0xbe4af076	-0.19818291
249	0xbe8e33b0	-0.2777381
250	0xbebe8ff7	-0.3721921
251	0x3dea44b4	0.11438885
252	0x3d0e30f8	0.03471467
253	0xbe31bc6c	-0.17357033
254	0xbe8bf88e	-0.2733807
255	0xbe446f24	-0.19183022

lstm.bias_ih_l0 f4 [512]
0	0x3eab5e4a	0.33470374
1	0x3ccaf8dd	0.02477687
2	0x3d25f89b	0.04052029
3	0x3e87e0e9	0.2653878
4	0x3dbe6740	0.09297037
5	0x3de586ff	0.11207389
6	0xbc912929	-0.017719822
7	0xbe538b40	-0.20658588
8	0x3ec4cdf5	0.38438383
9	0x3ea9e426	0.33181876
10	0x3e19f5e9	0.15035214
11	0x3c7a5f0f	0.015281453
12	0xbd1d9708	-0.038474113
13	0x3c96b1f5	0.018395403
14	0xbd10bd76	-0.035336934
15	0x3d4a3136	0.049363337
16	0x3edf17b3	0.4357277
17	0x3def7ded	0.1169394
18	0x3dd29f05	0.10284237
19	0x3e30da31	0.17270733
20	0x3e2284e9	0.15871014
21	0x3ecafb38	0.3964479
22	0x3ea5abfe	0.32357782
23	0x3de26cee	0.11055933
24	0xbe6eb42a	-0.23310915
25	0x3db65caa	0.08904393
26	0x3e677471	0.22603013
27	0x3e574bd7	0.21025024
28	0x3ee0a11e	0.43872923
29	0x3ef54f24	0.47911942
30	0x3e045f60	0.12927008
31	0x3e359788	0.17733586
32	0xbe117da9	-0.14208092
33	0x3d83e143	0.0643945
34	0x3dd4222a	0.10358079
35	0xbef49ec2	-0.47777373
36	0x3e4fb597	0.20284115
37	0x3e0b3a1c	0.13596386
38	0x3e285826	0.16439876
39	0x3ea8ee17	0.32994148
40	0x3c24fbe0	0.010069817
41	0x3e7e57aa	0.24838129
42	0x3e7b985c	0.24569839
43	0x3ea81b12	0.32833153
44	0x3e26f083	0.16302685
45	0xbdc50ffb	-0.09622189
46	0x3dba24ce	0.09089051
47	0x3e080315	0.13282426
48	0x3d0bd606	0.034139656
49	0xbbab9d73	-0.0052372753
50	0x3d7fb979	0.06243274
51	0x3c0fa52d	0.008767408
52	0x3e25ad15	0.16179307
53	0x3eabd216	0.3355872
54	0xbeb4413c	-0.3520602
55	0x3e785b59	0.24253596
56	0x3e38d3e6	0.18049583
57	0x3dd7b008	0.10531622
58	0x3e159432	0.14607313
59	0x3ce58c6b	0.028021058
60	0x3eb13feb	0.34619078
61	0x3ea52b5d	0.32259646
62	0x3e405a15	0.18784364
63	0xbc565b58	-0.0130833015
64	0x3d3332db	0.04374967
65	0x3eae5006	0.34045428
66	0x3cff2915	0.03114752
67	0x3e97a934	0.2962128
68	0x3dfbdc9c	0.12297937
69	0x3e1f2d4f	0.15544628
70	0xbdd90b7f	-0.10597896
71	0x3f0447b4	0.5167191
72	0xbc906230	-0.017624944
73	0x3e73b329	0.23798813
74	0x3e611d74	0.21983892
75	0xbe6e551c	-0.23274654
76	0x3d99629f	0.074895136
77	0x3d95b63e	0.073101506
78	0x3defcf91	0.11709512
79	0xbdfef3dc	-0.12448856
80	0xbb7895a8	-0.0037931
81	0x3d0ceaf0	0.03440374
82	0x3da8ec9c	0.08248255
83	0xbd8a2af6	-0.067464754
84	0x3dd0474b	0.10169848
85	0x3eb8c90f	0.36090896
86	0x3dfc4946	0.12318663
87	0xbcf87f3f	-0.030334113
88	0x3f16b66c	0.58872104
89	0x3e7acff3	0.24493389
90	0x3e4da4a2	0.20082334
91	0x3ead475a	0.338435
92	0xbec22944	-0.37922108
93	0x3e3b86a9	0.18313088
94	0xbddcee43	-0.10787632
95	0x3e85bc8f	0.2612042
96	0x3e188bf2	0.14897135
97	0xbc8fa1de	-0.017533239
98	0xbef9cb42	-0.48787886
99	0x3ed77bb9	0.4208658
100	0x3e4711ff	0.19440459
101	0x3eaf0dbc	0.34190166
102	0x3e273890	0.1633017
103	0xbda83204	-0.08212665
104	0x3977cb93	0.00023631593
105	0x3eaae258	0.33375812
106	0x3bd6c4c3	0.0065542175
107	0x3db4e8ce	0.088334665
108	0x3e435985	0.19077118
109	0x3e8f7a04	0.28022778
110	0x3e5e8b2a	0.21732774
111	0xba3ed485	-0.00072795927
112	0x3e8ff156	0.28113812
113	0xbedb3214	-0.42811644
114	0xbdb861e9	-0.0900305
115	0x3e90720b	0.28212008
116	0x3d5298d7	0.05141529
117	0x3ed0260a	0.40654022
118	0xbe4e2775	-0.20132239
119	0xbf24a422	-0.64312947
120	0x3efd6982	0.4949456
121	0x3e9d0567	0.30668184
122	0x3eb191dc	0.34681594
123	0x3e4504f6	0.19240174
124	0x3ea9aed3	0.33141193
125	0x3eba3307	0.36367056
126	0x3de18d5b	0.110132895
127	0xbde2ab01	-0.11067773
128	0x3e023c61	0.12718345
129	0x3cb1634c	0.021653794
130	0x3ebbc72f	0.36675403
131	0x3de4836f	0.111578815
132	0x3de9f447	0.11423545
133	0x3ec83077	0.39099476
134	0x3ed8489a	0.4224289
135	0x3f191c88	0.5980916
136	0x3e2832da	0.16425648
137	0x3ee143ac	0.43996942
138	0x3de065a4	0.109568864
139	0x3df61e07	0.12017446
140	0x3ea58abe	0.32332414
141	0x3eb607ff	0.35552976
142	0x3eba1217	0.36341926
143	0x3de89d00	0.113580704
144	0xbe42adac	-0.19011563
145	0x3d1e5950	0.038659394
146	0x3e340814	0.17581207
147	0x3de8c67d	0.11365984
148	0x3e3f76c7	0.18697654
149	0x3d2c674e	0.042090707
150	0x3ce888a4	0.028385468
151	0x3e264fcd	0.16241379
152	0x3ecd72ca	0.4012664
153	0x3dc8a88d	0.097977735
154	0x3e3be644	0.18349558
155	0xbd0d157e	-0.034444325
156	0x3d99bd4a	0.07506807
157	0x3e048223	0.12940268
158	0x3daa570a	0.08317383
159	0xbd5312b9	-0.051531527
160	0x3e64b16f	0.2233331
161	0x3d80bff3	0.062866114
162	0x3caac52a	0.020845968
163	0x3f34c1f5	0.70608455
164	0x3e19f6d6	0.15035567
165	0x3e820ae1	0.25398925
166	0x3e80cce4	0.2515632
167	0x3e59d29d	0.21271749
168	0x3ea87233	0.32899627
169	0xbd29607d	-0.041351784
170	0x3e330e30	0.17485881
171	0x3d28bf4b	0.041198056
172	0x3e85e6fc	0.2615279
173	0x3d99e9e9	0.07515318
174	0x3e1f990e	0.1558573
175	0x3dd2093d	0.10255668
176	0x3ebf5b39	0.37374285
177	0x3da32368	0.079657376
178	0x3e898d96	0.26865834
179	0x3e43a3ff	0.19105528
180	0xbcc81600	-0.024424553
181	0x3ea44209	0.3208163
182	0x3f367808	0.71276903
183	0x3e58b800	0.2116394
184	0x3de57638	0.11204189
185	0x3e70aabd	0.23502631
186	0x3d81d605	0.06339649
187	0x3de7421b	0.112919055
188	0x3e708eff	0.23492049
189	0xbe24579d	-0.16049047
190	0x3e15d083	0.14630322
191	0x3eafc61e	0.3433084
192	0x3ea64600	0.3247528
193	0x3e68c54c	0.22731513
194	0x3ded4cba	0.115869
195	0xbd159dc0	-0.036527395
196	0x3eb3c7a6	0.35113257
197	0x3e39482f	0.18093942
198	0x3c95f502	0.018305305
199	0xbe23b193	-0.15985708
200	0x3e9a7ff2	0.3017574
201	0x3e478569	0.19484486
202	0x3ee43523	0.4457179
203	0x3e97cfc1	0.2965069
204	0x3e1446f8	0.14480197
205	0x3ec893f2	0.39175373
206	0xbdc31ec2	-0.09527351
207	0x3ea1e990	0.31623507
208	0x3ec6d40f	0.38833663
209	0x3e2ec274	0.17066365
210	0x3e688f35	0.22710879
211	0x3e6e2ed1	0.23260047
212	0x3e8730f2	0.2640453
213	0xbdef56ee	-0.116865024
214	0x3cb9b8ea	0.022671182
215	0x3e7884d6	0.24269423
216	0xbe872deb	-0.2640222
217	0x3e923136	0.2855317
218	0x3df3c804	0.11903384
219	0x3ddaabf6	0.1067733
220	0x3f47cf09	0.78050286
221	0x3ea64466	0.3247406
222	0x3e9212c7	0.2852995
223	0xbd001d79	-0.031278107
224	0x3daf97f0	0.08573902
225	0x3e601829	0.21884216
226	0x3f5cdd2f	0.86275
227	0xbdd683fa	-0.10474391
228	0x3e2136a5	0.15743501
229	0x3d1395fa	0.0360317
230	0x3e051001	0.12994386
231	0x3eaf905a	0.3428982
232	0x3e68a8eb	0.22720687
233	0x3e819fe6	0.25317305
234	0x3e660609	0.2246324
235	0x3cd6f1a6	0.026238274
236	0x3e3238e7	0.17404519
237	0x3dd48c3e	0.103783116
238	0x3dbb8476	0.09156124
239	0x3e2eb7e8	0.17062342
240	0x3d7bcbf4	0.0614738
241	0x3f3cac67	0.73700565
242	0x3e8c141a	0.27359086
243	0xbe0e787d	-0.1391315
244	0x3d4ee017	0.050506677
245	0x3d391bbd	0.04519247
246	0x3ea33644	0.3187734
247	0x3f67bdaf	0.9052381
248	0xbd6cf865	-0.057854075
249	0xbe2dce53	-0.16973238
250	0x3e185093	0.14874487
251	0x3e0a3fac	0.13500851
252	0x3e2e0195	0.16992791
253	0xbdf133b5	-0.117774405
254	0x3d9b91e8	0.07596189
255	0x3ecf2684	0.40459073

lstm.bias_hh_l0 f4 [512]
0	0x3e94a99a	0.29035646
1	0x3d9233d4	0.07138792
2	0x3d962237	0.07330745
3	0x3e3d04fb	0.18458931
4	0x3d2f6b40	0.04282689
5	0x3d97ab30	0.07405698
6	0xbba98281	-0.005173028
7	0xbe8415d9	-0.25797918
8	0x3ec823eb	0.39089903
9	0x3eafbfa8	0.3432591
10	0x3e6786d3	0.22610025
11	0xbd17164d	-0.036886502
12	0xbd545999	-0.05184326
13	0x3d43d468	0.04780999
14	0xbc8bce79	-0.017066227
15	0x3d86c0bf	0.06579732
16	0x3ecc3da1	0.3989077
17	0x3e0a3997	0.13498531
18	0x3d9a5454	0.075356156
19	0x3e765afd	0.24058147
20	0x3e24f38c	0.16108531
21	0x3eab4602	0.3345185
22	0x3ea02ee8	0.31285787
23	0x3e1b1fce	0.15148851
24	0xbe746bfa	-0.23869315
25	0x3e30999f	0.17246102
26	0x3e89a37d	0.26882544
27	0x3e4c9c86	0.19981584
28	0x3ee765c5	0.45194831
29	0x3ed7b481	0.421299
30	0x3de6b2bd	0.1126456
31	0x3e11a520	0.14223146
32	0xbe3d834f	-0.18507122
33	0x3da3a6e6	0.07990818
34	0x3d06f6b3	0.032950114
35	0xbee14c78	-0.44003654
36	0x3e9056dc	0.28191268
37	0x3e57483a	0.21023646
38	0x3e1864c8	0.14882195
39	0x3eb0647d	0.34451666
40	0x3c947762	0.018123332
41	0x3e555a96	0.20835337
42	0x3e6ae85e	0.22940204
43	0x3eb21219	0.34779432
44	0x3e50e0d7	0.2039827
45	0xbe0c2758	-0.13686883
46	0x3d2c43aa	0.042056717
47	0x3e36bdc5	0.17845829
48	0x3d97d313	0.07413306
49	0x3d4ea48a	0.050449885
50	0x3cee3a59	0.029080557
51	0x3c4327a5	0.011911307
52	0x3e199010	0.14996362
53	0x3ed74cf9	0.42050913
54	0xbec28e5e	-0.37999243
55	0x3e5009f6	0.203163
56	0x3e36ec84	0.17863661
57	0x3dbe1d13	0.09282889
58	0x3de74f94	0.11294475
59	0xbc2a83cf	-0.010407402
60	0x3e924372	0.28567082
61	0x3eb164e8	0.34647298
62	0x3e663559	0.22481288
63	0xbceedd85	-0.029158363
64	0x3ce2bd32	0.027678106
65	0x3e88240b	0.2659
66	0x3da21e30	0.07915914
67	0x3e5984e2	0.21242097
68	0x3e073d97	0.13207088
69	0x3de2f942	0.110826984
70	0xbdc14fc6	-0.09439044
71	0x3f0996c4	0.53745675
72	0xbd6d286d	-0.05789988
73	0x3e833ea9	0.25633743
74	0x3dee4c95	0.116357006
75	0xbe584726	-0.21120891
76	0x3d853f59	0.06506223
77	0x3d1d0d38	0.038342685
78	0x3e28d576	0.16487679
79	0xbe4f46e5	-0.20241888
80	0x3b01bb5e	0.0019795517
81	0xbcfef553	-0.03112284
82	0x3de9f70b	0.11424073
83	0xbc77f360	-0.015133709
84	0x3e0c4c0f	0.13700889
85	0x3eb6a3f2	0.35671955
86	0x3e1f22e1	0.15540649
87	0x3d170edd	0.03687941
88	0x3f17225e	0.59036815
89	0x3e4b9300	0.19880295
90	0x3dd98fa5	0.10623101
91	0x3ec59bbe	0.38595384
92	0xbeda5f11	-0.42650655
93	0x3e882c5d	0.26596346
94	0xbdcf0099	-0.10107536
95	0x3e5b3bae	0.21409485
96	0x3e03c206	0.12866983
97	0xbc43a4c3	-0.011941138
98	0xbedb1b92	-0.42794472
99	0x3ee2d33a	0.44301778
100	0x3e8d6336	0.27614754
101	0x3eac1677	0.3361089
102	0x3dbe8b3a	0.09303899
103	0xbd8aade2	-0.06771447
104	0x3cb33d0b	0.021879693
105	0x3e9f2cf5	0.31088987
106	0xbd4c5c30	-0.049892604
107	0x3d1ecd86	0.03877022
108	0x3de08eca	0.10964735
109	0x3e896da3	0.2684146
110	0x3e6174a4	0.22017151
111	0x3d9a4241	0.07532168
112	0x3e9fe87d	0.31232062
113	0xbee04849	-0.4380515
114	0xbdfe0f4c	-0.124052614
115	0x3eaf1833	0.3419815
116	0x3bfda5ef	0.007740728
117	0x3ee34f89	0.44396618
118	0xbe68dbde	-0.22740123
119	0xbf1649f6	-0.58706605
120	0x3ecee4f4	0.40409052
121	0x3e856f28	0.26061368
122	0x3ebb16e8	0.36540914
123	0x3df1e4a1	0.11811186
124	0x3eb22298	0.34792018
125	0x3ecc54da	0.39908487
126	0x3d9be4a8	0.07611972
127	0xbd87f4d7	-0.06638496
128	0x3de54cd8	0.111962974
129	0x3cf993a8	0.030465916
130	0x3ebab38b	0.36465105
131	0x3dafe870	0.08589256
132	0x3d7690f3	0.060196828
133	0x3edf938f	0.43667266
134	0x3ec249c5	0.37946907
135	0x3f1ae0e2	0.60499394
136	0x3e0ea762	0.13931039
137	0x3ebc6506	0.36795825
138	0x3e278266	0.16358337
139	0x3d9db73c	0.07700965
140	0x3eb9df88	0.36303353
141	0x3eb523a7	0.35378763
142	0x3ec0eac1	0.37679103
143	0x3e1e8dc8	0.15483773
144	0xbe521fac	-0.20519894
145	0x3d8a8908	0.06764418
146	0x3e03b0b1	0.12860371
147	0x3e04667f	0.12929724
148	0x3e6b579c	0.22982639
149	0x3e0efe03	0.13964085
150	0x3c82aaaf	0.015950529
151	0x3e3222f0	0.1739614
152	0x3efb000f	0.49023482
153	0x3e42edc2	0.1903601
154	0x3e0c3c3a	0.1369485
155	0x3c99b336	0.018762212
156	0x3df813c2	0.121131435
157	0x3d8524d3	0.06501164
158	0x3e10456a	0.1408898
159	0xbdfd8150	-0.1237818
160	0x3e80e021	0.25170997
161	0x3d92678a	0.07148655
162	0x3d01678e	0.031592898
163	0x3f36f00e	0.71460044
164	0x3e24f3c1	0.1610861
165	0x3e851b0b	0.25997195
166	0x3e9f60d7	0.3112857
167	0x3e283852	0.16427734
168	0x3ea7af4f	0.32750937
169	0xbda7ce91	-0.08193696
170	0x3e626709	0.22109617
171	0x3d127bde	0.03576266
172	0x3e4ca639	0.19985284
173	0x3b8a5a6c	0.004222205
174	0x3dec7c2a	0.1154712
175	0x3dd162a1	0.1022389
176	0x3ed5171b	0.4161919
177	0x3e01976e	0.12655422
178	0x3eb37081	0.3504677
179	0x3e7547af	0.23953126
180	0xbdc44a8f	-0.095845334
181	0x3e9ca328	0.30593228
182	0x3f3a0ad9	0.726728
183	0x3e68959f	0.22713326
184	0x3d814a98	0.06313056
185	0x3e8936b4	0.26799548
186	0x3d99b4b5	0.0750517
187	0x3e39040f	0.18067954
188	0x3e9d80fc	0.3076247
189	0xbdf8f198	-0.12155455
190	0x3e558cfb	0.20854561
191	0x3ea859f4	0.3288113
192	0x3ea1ff4d	0.31640092
193	0x3e485b23	0.19566016
194	0x3d544d68	0.051831633
195	0xbd3b33b9	-0.045703623
196	0x3ea2d54c	0.31803358
197	0x3e8a8d96	0.27061146
198	0x3de88f0b	0.11355408
199	0xbe1d4077	-0.15356623
200	0x3eb35510	0.35025835
201	0x3e72f81b	0.23727457
202	0x3eda5558	0.42643237
203	0x3ea95953	0.3307596
204	0x3e33aa89	0.17545523
205	0x3eb1b25c	0.3470639
206	0xbe38d93e	-0.18051621
207	0x3e83ab8c	0.25716817
208	0x3ef96b30	0.4871459
209	0x3e6c5b7c	0.23081774
210	0x3e3b86ae	0.18313095
211	0x3e654e35	0.22393115
212	0x3e6cea49	0.23136248
213	0xbd1b810c	-0.037964866
214	0xbc4c377d	-0.012464401
215	0x3e84d4c7	0.25943586
216	0xbe706fe6	-0.23480186
217	0x3e944834	0.28961337
218	0x3d2931a3	0.041307103
219	0x3dd93e7b	0.1060762
220	0x3f464775	0.77452785
221	0x3ebea61e	0.37236112
222	0x3ea2f5a3	0.3182803
223	0xbbaa8762	-0.005204127
224	0xbbc5b2bc	-0.0060332697
225	0x3e6156e3	0.22005801
226	0x3f57633f	0.8413581
227	0xbd1c2a9e	-0.03812658
228	0x3e2de73d	0.16982742
229	0x3d542a08	0.051797897
230	0x3e3f334a	0.18671909
231	0x3ed6e779	0.41973475
232	0x3e84450f	0.25833938
233	0x3e7c6683	0.2464848
234	0x3e7a47a6	0.24441394
235	0x3d317717	0.043326464
236	0x3e7cef04	0.24700552
237	0x3df5fc3b	0.12011
238	0x3e06c70d	0.1316187
239	0x3e243d3f	0.16038989
240	0x3d4e6c83	0.050396454
241	0x3f462eea	0.77415335
242	0x3e629406	0.22126779
243	0xbdd0cfc6	-0.1019588
244	0x3dbbcd27	0.09169989
245	0xbc651733	-0.013982582
246	0x3eadf922	0.33979136
247	0x3f6dbc89	0.92865807
248	0xbd5362b8	-0.051607817
249	0xbdaf8ac7	-0.085713916
250	0x3e34c8d4	0.17654735
251	0x3df9fef8	0.122068346
252	0x3e0a427f	0.13501929
253	0xbdcd7f0c	-0.10033998
254	0x3d866ae3	0.06563356
255	0x3ee93dd5	0.45554987

lstm.weight_ih_l1 f4 [512, 128]
0	0x3db421a1	0.08795477
1	0x3eb6f66c	0.3573488
2	0x3ad68365	0.0016366063
3	0x3e17d7ef	0.14828466
4	0xbe92d506	-0.2867815
5	0xbe45afb5	-0.19305308
6	0x3cc08f93	0.023505962
7	0x3df89408	0.1213761
8	0xbd325913	-0.04354198
9	0xbce66038	-0.028122053
10	0x3ef83e69	0.48485115
11	0xbd03efc0	-0.032211065
12	0x3e06a7c0	0.13149929
13	0xbb14737e	-0.0022651847
14	0xbeecdf79	-0.46264246
15	0x3c0d3746	0.008619135
16	0xba27b578	-0.00063975854
17	0xbe5e5d7a	-0.21715346
18	0xbaae9924	-0.0013320786
19	0xbc4f9ddf	-0.012671917
20	0x3df72f91	0.120696194
21	0xbe58c905	-0.21170433
22	0xbdb67b4b	-0.08910235
23	0x3cfe141f	0.031015454
24	0xbe2abc62	-0.16673425
25	0x3ee0be10	0.43895006
26	0x3d2b22f1	0.04178137
27	0x3d49e75b	0.049292903
28	0xbe010d35	-0.12602694
29	0x3ddc57e9	0.10758955
30	0x3e667488	0.2250539
31	0x3cc2927e	0.023751494
32	0x3dbf5359	0.09342069
33	0x3e86383e	0.26214784
34	0xbe120ca6	-0.14262637
35	0x3e47ca71	0.19510819
36	0xbde95c57	-0.113945656
37	0xbe5dbabd	-0.21653266
38	0x3c998142	0.018738393
39	0x3c5d202f	0.013496443
40	0xbd8eaf70	-0.06967056
41	0xbdf85661	-0.121258505
42	0xbe4dad1b	-0.20085566
43	0x3ba68392	0.0050816024
44	0xbe60b28f	-0.21943115
45	0xbb975f87	-0.004619542
46	0x3e8be92e	0.2732634
47	0xbb922de4	-0.004461037
48	0xbd78e4fd	-0.060765255
49	0xbde4afd1	-0.11166347
50	0xbe0718e4	-0.13193089
51	0xbbb74249	-0.0055926186
52	0x3d178648	0.036993295
53	0x3e850bcf	0.25985572
54	0xbd82dc86	-0.06389718
55	0xbe5b633b	-0.21424572
56	0xbd14cdcd	-0.03632908
57	0xbc6c67c5	-0.014429037
58	0x3d704030	0.058654964
59	0xbe4518f9	-0.19247808
60	0x3e46c62e	0.19411537
61	0xbeb68c17	-0.35653755
62	0x3e97e464	0.29666436
63	0xbefecd4d	-0.49766007
64	0xbe84a112	-0.25904137
65	0xbcb294b0	-0.021799415
66	0x3e07a204	0.13245398
67	0xbe6f402a	-0.2336432
68	0xbc424071	-0.011856184
69	0xbd271f14	-0.040801123
70	0xbd097259	-0.033556316
71	0xbaeda16f	-0.0018129776
72	0xbe84d9f9	-0.2594755
73	0x3ea5bd42	0.32370955
74	0xbe491f63	-0.1964088
75	0x3de138b5	0.10997144
76	0xbd4e98b7	-0.05043861
77	0x3e68c4b6	0.2273129
78	0x3e054faa	0.1301867
79	0xbea17a03	-0.315384
80	0x3d90aefe	0.07064627
81	0xbcaed690	-0.021342546
82	0x3c5db7c5	0.013532584
83	0xbec539d6	-0.38520688
84	0x3e6373fc	0.22212213
85	0x3ddfb6c7	0.10923534
86	0x3e6b7d4d	0.22997017
87	0x3e2f90d4	0.17145091
88	0xbdf885d6	-0.12134902
89	0xbc96cc49	-0.018407958
90	0xbc6e6cf0	-0.01455234
91	0x3d960e8b	0.073269926
92	0xbe5faa9f	-0.2184243
93	0xbe9aeab8	-0.302572
94	0xbd096b34	-0.033549502
95	0xbe0a07ea	-0.13479581
96	0xbd46de49	-0.04855183
97	0x3d53f94f	0.05175143
98	0xbe449771	-0.19198395
99	0xbe5f2a85	-0.21793564
100	0xbebdab25	-0.37044635
101	0xbe114416	-0.14186129
102	0x3c83d5bb	0.016093126
103	0x3e1798f9	0.14804448
104	0x3dae1209	0.08499534
105	0xbe7d195b	-0.24716704
106	0xbe982b73	-0.2972065
107	0xbe22ff0b	-0.15917604
108	0x3dce5a36	0.100758
109	0x3dcfdb81	0.10149289
110	0xbc0c98db	-0.008581365
111	0xbeae5b21	-0.340539
112	0x3e403b94	0.18772727
113	0x3e3259c6	0.17417058
114	0xbe29dff2	-0.16589335
115	0x3d248ceb	0.040173452
116	0xbddf1227	-0.10892134
117	0xbe7528a9	-0.23941292
118	0xbd9dc320	-0.07703233
119	0x3e9db7eb	0.3080438
120	0x3d9d6acc	0.076863855
121	0x3d8bbb91	0.06822885
122	0xbe21399b	-0.15744631
123	0x3da104d9	0.07862253
124	0x3e461e5b	0.19347517
125	0x3e15e977	0.14639841
126	0x3dc557fd	0.09635923
127	0xbd95d703	-0.07316401
128	0x3e144529	0.14479508
129	0xbe9ebcf6	-0.3100354
130	0xbe9391e6	-0.2882225
131	0x3e431530	0.19051051
132	0xbf0cf308	-0.55058336
133	0xbd3c0045	-0.045898695
134	0x3dbc1fee	0.091857776
135	0x3dcbdd47	0.09954315
136	0x3e114181	0.14185144
137	0xbc9f21d2	-0.019425306
138	0xbe2d52d6	-0.1692613
139	0x3dcf7ea6	0.10131578
140	0xbe9ee152	-0.3103128
141	0xbe3e3b48	-0.18577302
142	0x3e814b05	0.25252548
143	0x3b6e0f61	0.0036325085
144	0x3d2157cf	0.03939038
145	0x3c9d3a0f	0.019192724
146	0x3db19f7f	0.086729996
147	0x3bd6d5c1	0.006556243
148	0xbe88e0a1	-0.26733878
149	0x3d72b013	0.05924995
150	0xbc0e8348	-0.008698292
151	0xbe6129d4	-0.21988612
152	0xbd95a7eb	-0.073074184
153	0xbd4c4f65	-0.049880404
154	0x3df46877	0.119339876
155	0x3e49c2c8	0.1970321
156	0xbcf9f054	-0.030510105
157	0x3d9df4a1	0.07712675
158	0x3d4170a1	0.047226552
159	0xbd28e1a0	-0.041230798
160	0x3e04adcd	0.12956925
161	0xbd173bed	-0.036922384
162	0xbc6d42c7	-0.014481253
163	0x3e1d1dc3	0.15343384
164	0xbf1e6097	-0.61866134
165	0x3e01dcfa	0.12681952
166	0xbda45a4a	-0.08025034
167	0xbd74ec8c	-0.0597959
168	0x3dc5ae63	0.09652402
169	0xbeb68aae	-0.3565268
170	0xbd9aad7b	-0.0755262
171	0xbe32d511	-0.17464091
172	0x3c04d5db	0.008107628
173	0x3d908c99	0.07058067
174	0xbe68f952	-0.22751358
175	0x3d8b052f	0.06788098
176	0xbc0a7635	-0.008451034
177	0x3d9dd00d	0.07705698
178	0xbda2bf8c	-0.07946691
179	0xbc944628	-0.01809986
180	0xbce21c1f	-0.0276013
181	0xbd7af726	-0.061270855
182	0xbe1d212c	-0.15344685
183	0xbe712093	-0.23547582
184	0xbe9b2933	-0.3030487
185	0x3e8ea785	0.27862182
186	0xbe5faec2	-0.21844009
187	0xbebb218d	-0.36549035
188	0x3e05366b	0.1300904
189	0x3e681beb	0.226669
190	0x3cf438fd	0.02981233
191	0xbcfb15c2	-0.030650023
192	0xbda5b9ba	-0.08092065
193	0xbe8c7301	-0.2743149
194	0xbeb6c8b8	-0.3570001
195	0xbe0009d8	-0.12503755
196	0x3e8b5521	0.27213386
197	0x3e1f3fc4	0.15551668
198	0xbc66f646	-0.014096802
199	0xbe3aa9d5	-0.18228848
200	0xbd4f2065	-0.050568003
201	0xbe2dc784	-0.1697064
202	0x3e313c83	0.1730824
203	0xbe2418c2	-0.1602507
204	0x3e0c2480	0.13685799
205	0xbec703c9	-0.38870075
206	0x3c9721f4	0.018448807
207	0xbed2ded5	-0.41185632
208	0x3e3aba3a	0.18235102
209	0xbdc2e908	-0.095171034
210	0xbe5c9798	-0.21542203
211	0xbe6e31ba	-0.23261157
212	0xbe9e2385	-0.30886474
213	0x3c1917d0	0.009344056
214	0xbec090ae	-0.37610382
215	0x3e190ed8	0.14947069
216	0xbe0b8301	-0.13624193
217	0xbb1fea6c	-0.00244012
218	0x3d794501	0.060856823
219	0x3c6699b0	0.014074728
220	0xbe893b5a	-0.26803094
221	0x3de1319b	0.109957896
222	0x3e3470de	0.1762118
223	0x3d404bd1	0.046947304
224	0xbce825ac	-0.028338276
225	0xbde1b25e	-0.11020349
226	0x3e33b24e	0.17548487
227	0x3e0dac1e	0.13835189
228	0xbe4d19aa	-0.20029321
229	0x3cfc8129	0.030823307
230	0x3e83eaee	0.25765175
231	0xbe8e9720	-0.27849674
232	0x3bf5a4d3	0.007496455
233	0xbe09f5a9	-0.13472618
234	0x3e4883c2	0.19581512
235	0x3de88bf4	0.11354819
236	0x3e30a48a	0.17250267
237	0x3eb8c6ab	0.36089072
238	0xbce5fa67	-0.028073503
239	0x3dfc637b	0.12323662
240	0x3dd66c6f	0.10469901
241	0x3d63ceaa	0.055617012
242	0x3d004ba6	0.031322144
243	0x3e628278	0.22120082
244	0xbd908a4d	-0.07057629
245	0x3e414a01	0.18875886
246	0xbde485d9	-0.11158342
247	0x3e7d966f	0.24764417
248	0xbdd097db	-0.10185214
249	0xbd430055	-0.04760774
250	0xbe7ee3c8	-0.24891579
251	0xbd27b799	-0.040946577
252	0x3e0c061f	0.1367421
253	0xbebf75b8	-0.373945
254	0xbe0a3535	-0.1349686
255	0x3cb2ce3c	0.021826856

lstm.weight_hh_l1 f4 [512, 128]
0	0x3def8acc	0.11696395
1	0x3e5718fb	0.21005623
2	0x3e7eb1e7	0.24872552
3	0xbe49a0d7	-0.19690262
4	0x3e2de11a	0.169804
5	0x3ddac8a6	0.10682802
6	0x3c19bfe2	0.009384127
7	0x3d788d94	0.060681894
8	0xbe6e53fe	-0.23274228
9	0x3f4ecb70	0.8077917
10	0xbdc0fa92	-0.094227925
11	0xbd9de7fe	-0.077102646
12	0xbf32f567	-0.69905704
13	0xbe087f0d	-0.13329716
14	0x3dcb0e47	0.099148326
15	0xbd580dcf	-0.052747544
16	0x3e17c122	0.14819768
17	0xbeacb514	-0.33731902
18	0x3e9aa5fd	0.30204764
19	0xbee7b6ed	-0.4525675
20	0xbea74d8d	-0.32676354
21	0xbe2dc958	-0.16971338
22	0xbe94960b	-0.29020724
23	0x3d002616	0.03128632
24	0x3e0c11bf	0.13678645
25	0x3e3792e3	0.17927127
26	0xbdd37869	-0.10325701
27	0x3e3c8358	0.18409479
28	0xbe21c9f0	-0.1579969
29	0x3d04469b	0.032293897
30	0x3e679645	0.22615917
31	0x3e170e3c	0.14751524
32	0xbf6e9f3f	-0.9321174
33	0xbe9c550a	-0.3053363
34	0xbeb0f4f1	-0.34561875
35	0xbeef7adc	-0.46773422
36	0x3e05f45c	0.13081497
37	0x3e9a4ee5	0.30138317
38	0x3e5141f7	0.2043532
39	0xbd92c465	-0.071663655
40	0xbe412155	-0.18860371
41	0xbe88dcbb	-0.26730904
42	0xbe5e5efc	-0.21715921
43	0x3f02fe27	0.51169056
44	0xbe22e3c1	-0.15907194
45	0x3e22d7ce	0.15902635
46	0xbe9a2b5b	-0.30111203
47	0xbe8de717	-0.2771537
48	0xbe4d1468	-0.20027316
49	0x3f2e2f1b	0.6804063
50	0xbcff3a18	-0.031155631
51	0x3e5d3dcf	0.2160561
52	0x3de066c7	0.10957103
53	0xbf246697	-0.6421904
54	0xbeb5c379	-0.35500696
55	0x3f2e3371	0.68047243
56	0xbe3389e8	-0.17533076
57	0x3e9ecfbf	0.31017873
58	0xbdb0a71a	-0.08625622
59	0x3dc5664c	0.09638652
60	0xbea607b5	-0.32427755
61	0xbe63e1bc	-0.2225408
62	0x3ec8bed2	0.39208084
63	0x3f0bbb9e	0.54583156
64	0xbeaa4597	-0.33256218
65	0xbe5143d5	-0.20436032
66	0xbe5e298c	-0.21695536
67	0xbac39ac4	-0.0014923443
68	0xbe054578	-0.13014781
69	0x3f19b9da	0.6004921
70	0x3e7a2068	0.24426425
71	0x3e1ab5ea	0.15108457
72	0xbeeda580	-0.4641533
73	0xbe20673e	-0.15664384
74	0x3c2d5744	0.010579888
75	0xbd8ace24	-0.067775995
76	0x3e858c0d	0.26083413
77	0xbf189fc2	-0.5961877
78	0xbd5ddbb7	-0.054164615
79	0x3e67bf48	0.22631562
80	0xbedf6ead	-0.43639126
81	0xbe33d28c	-0.17560786
82	0xbe69a471	-0.22816636
83	0x3e2cb815	0.16867097
84	0x3e24bd51	0.16087843
85	0xbf5572b7	-0.83378166
86	0x3e53a382	0.20667842
87	0x3e176b54	0.14787036
88	0xbde05994	-0.10954586
89	0x3e57d6dd	0.21078058
90	0xbebf6f68	-0.37389684
91	0x3f185804	0.595093
92	0x3e779c21	0.24180652
93	0xbed899ba	-0.42304784
94	0x3cba1880	0.02271676
95	0x3e703739	0.23458566
96	0xbe7750d6	-0.2415193
97	0x3f24b8f2	0.64344704
98	0xbe130551	-0.14357497
99	0xbe55ae87	-0.20867358
100	0x3db5c696	0.08875768
101	0xbeb6f03d	-0.35730162
102	0x3f09e78c	0.5386894
103	0x3e5261ba	0.20545092
104	0xbf1b11b2	-0.60573876
105	0xbd31c501	-0.04340077
106	0x3e067eec	0.13134354
107	0xbeb6fd49	-0.35740116
108	0xbe798c2c	-0.24369878
109	0xbe855abf	-0.26045796
110	0xbc1c585f	-0.009542554
111	0xbe06beef	-0.13158773
112	0xbef78d27	-0.48349878
113	0x3e56c191	0.20972277
114	0x3d50840f	0.05090719
115	0xbe16d6fa	-0.14730445
116	0xbea871a6	-0.32899207
117	0xbeabf325	-0.33583942
118	0x3e6a8dee	0.22905704
119	0x3ed18e3c	0.4092883
120	0xbe20fbd5	-0.15721066
121	0xbe049acb	-0.12949674
122	0x3defbd44	0.117060214
123	0xbe9491fd	-0.2901763
124	0xbe6cd7bf	-0.23129176
125	0x3dfb55f3	0.12272253
126	0xbe7649d3	-0.24051599
127	0xbe94bb87	-0.29049322
128	0xbd809170	-0.0627774
129	0x3e8d81df	0.27638146
130	0x3e094387	0.13404666
131	0xbe9406ba	-0.28911382
132	0xbe903a07	-0.2816927
133	0xbeebed0b	-0.46079287
134	0x3e1e5136	0.15460667
135	0x3ed575a3	0.41691312
136	0x3e957e2b	0.2919782
137	0xbf0ec2d7	-0.5576605
138	0xbd81c498	-0.063363254
139	0x3e01b91d	0.12668271
140	0x3cb52284	0.022111185
141	0xbf067678	-0.5252452
142	0xbe7193b4	-0.235915
143	0xbe8373af	-0.25674197
144	0xbe9f02ab	-0.31056723
145	0xbce8fedc	-0.028441839
146	0xbde05450	-0.10953581
147	0x3ec41339	0.38295916
148	0xbea5e9fd	-0.3240508
149	0xbee7a84e	-0.45245594
150	0xbe2b76e1	-0.16744567
151	0xbeb5c166	-0.35499114
152	0xbe53961d	-0.20662732
153	0xbeb0ab67	-0.3450577
154	0xbe4a6140	-0.1976366
155	0xbaf7c835	-0.0018904271
156	0xbd8f5bf2	-0.06999959
157	0x3da701ec	0.081546634
158	0x3e2a9931	0.1666
159	0xbe687a6a	-0.22702947
160	0xbed4e520	-0.41581059
161	0x3d7552ea	0.059893526
162	0x3e54812f	0.20752405
163	0xbc0f67d2	-0.00875278
164	0x3e77585e	0.24154803
165	0xbf393275	-0.72342616
166	0xbe71f2b1	-0.23627736
167	0x3eeeed32	0.4666534
168	0xbc41314f	-0.011791541
169	0xbf48e148	-0.7846875
170	0x3ec05be9	0.37570122
171	0x3cb29aed	0.02180239
172	0x3daf22ed	0.085515834
173	0x3e091cd2	0.133899
174	0xbe55288c	-0.20816249
175	0xbefea3c3	-0.49734315
176	0x3d4e2729	0.050330315
177	0xbe80d939	-0.25165728
178	0xbdb4c323	-0.08826282
179	0xbcc4a794	-0.024005689
180	0xbe85ebb4	-0.2615639
181	0x3ee0d097	0.4390914
182	0xbe5de35a	-0.21668759
183	0x3d2ac0c6	0.04168775
184	0xbe84c4bf	-0.25931355
185	0x3eb44858	0.35211444
186	0xbe8b8cdf	-0.27255914
187	0x3eaf7dab	0.34275565
188	0x3f01bbe5	0.5067733
189	0xbeda8e07	-0.42686483
190	0xbd4c2f0e	-0.049849562
191	0xbcb8e9c2	-0.022572402
192	0x3ee94d14	0.45566618
193	0x3c9374d8	0.018000051
194	0x3d3468fa	0.044045426
195	0xbdf3aed5	-0.11898581
196	0xbe2232bd	-0.15839668
197	0x3e64ba76	0.22336754
198	0x3e41ff17	0.18944965
199	0x3ecd73d7	0.4012744
200	0x3e822241	0.2541676
201	0xbe4c88f9	-0.19974126
202	0x3c9b6102	0.018967155
203	0xbf432f60	-0.76244164
204	0xbf446bcf	-0.76727
205	0xbee80c53	-0.45321903
206	0x3d530026	0.051513813
207	0x3e3bde16	0.18346438
208	0xbe32fc0c	-0.17478961
209	0xbea243ab	-0.31692252
210	0xbe4088a2	-0.18802121
211	0x3e53044d	0.2060711
212	0x3d7b2ec3	0.061323892
213	0x3e036751	0.12832381
214	0x3e2ee3de	0.17079112
215	0xbec583e2	-0.3857718
216	0x3c5f00d8	0.013611041
217	0xbe2c1cbd	-0.16807838
218	0xbecd9769	-0.4015458
219	0x3e068795	0.13137658
220	0xbd5cd08e	-0.05390983
221	0x3e07cf9f	0.13262795
222	0xbdaba131	-0.08380354
223	0xbe8d9c97	-0.2765853
224	0x3eaaf911	0.33393148
225	0x3f067430	0.5252104
226	0xbebf0c41	-0.37314036
227	0x3f458a9e	0.7716464
228	0xbf1d1e62	-0.61374485
229	0x3dd3886a	0.10328753
230	0xbe4b3e22	-0.1984792
231	0xbe8ea4f3	-0.2786022
232	0x3ca9e4ae	0.020738926
233	0xbf308740	-0.68956375
234	0x3f5da7f8	0.86584425
235	0x3eadedbe	0.33970445
236	0xbd37dfa8	-0.04489103
237	0xbe3400b1	-0.17578389
238	0xbd36018e	-0.044435076
239	0x3eb10e8a	0.34581405
240	0xbf10b912	-0.56532395
241	0x3e9047e5	0.2817985
242	0xbeb34f5d	-0.35021487
243	0xbdb6d99a	-0.08928223
244	0x3e1bfac3	0.15232377
245	0xbcb82e16	-0.022482913
246	0x3e80674b	0.25078806
247	0x3f504f5c	0.8137109
248	0xbe7519e8	-0.23935664
249	0xbc02fc26	-0.007994687
250	0xbeda35cc	-0.4261917
251	0xbd6c9e1e	-0.05776798
252	0x3d8630a5	0.06552247
253	0x3ec00982	0.37507254
254	0xbed7f156	-0.42176312
255	0x3e8d5bf5	0.2760922
